<?xml version="1.0" ?>
<net name="saved_model" version="10">
	<layers>
		<layer id="0" name="input_tensor" type="Parameter" version="opset1">
			<data shape="1, 3, 512, 512" element_type="f32"/>
			<output>
				<port id="0" precision="FP32" names="Func/StatefulPartitionedCall/input/_0:0,StatefulPartitionedCall/Cast:0,input_tensor:0">
					<dim>1</dim>
					<dim>3</dim>
					<dim>512</dim>
					<dim>512</dim>
				</port>
			</output>
		</layer>
		<layer id="1" name="data_mul_46513" type="Const" version="opset1">
			<data element_type="f32" shape="1, 3, 1, 1" offset="0" size="12"/>
			<output>
				<port id="0" precision="FP32">
					<dim>1</dim>
					<dim>3</dim>
					<dim>1</dim>
					<dim>1</dim>
				</port>
			</output>
		</layer>
		<layer id="2" name="StatefulPartitionedCall/Preprocessor/truediv/Fused_Mul_" type="Multiply" version="opset1">
			<data auto_broadcast="numpy"/>
			<input>
				<port id="0" precision="FP32">
					<dim>1</dim>
					<dim>3</dim>
					<dim>512</dim>
					<dim>512</dim>
				</port>
				<port id="1" precision="FP32">
					<dim>1</dim>
					<dim>3</dim>
					<dim>1</dim>
					<dim>1</dim>
				</port>
			</input>
			<output>
				<port id="2" precision="FP32">
					<dim>1</dim>
					<dim>3</dim>
					<dim>512</dim>
					<dim>512</dim>
				</port>
			</output>
		</layer>
		<layer id="3" name="data_add_46515" type="Const" version="opset1">
			<data element_type="f32" shape="1, 3, 1, 1" offset="12" size="12"/>
			<output>
				<port id="0" precision="FP32">
					<dim>1</dim>
					<dim>3</dim>
					<dim>1</dim>
					<dim>1</dim>
				</port>
			</output>
		</layer>
		<layer id="4" name="StatefulPartitionedCall/Preprocessor/sub/Fused_Add_" type="Add" version="opset1">
			<data auto_broadcast="numpy"/>
			<input>
				<port id="0" precision="FP32">
					<dim>1</dim>
					<dim>3</dim>
					<dim>512</dim>
					<dim>512</dim>
				</port>
				<port id="1" precision="FP32">
					<dim>1</dim>
					<dim>3</dim>
					<dim>1</dim>
					<dim>1</dim>
				</port>
			</input>
			<output>
				<port id="2" precision="FP32" names="StatefulPartitionedCall/Preprocessor/stack:0,StatefulPartitionedCall/Preprocessor/truediv_1:0">
					<dim>1</dim>
					<dim>3</dim>
					<dim>512</dim>
					<dim>512</dim>
				</port>
			</output>
		</layer>
		<layer id="5" name="StatefulPartitionedCall/EfficientDet-D0/functional_1/stem_bn/FusedBatchNormV3/mean/Fused_Mul__copy" type="Const" version="opset1">
			<data element_type="f32" shape="32, 3, 3, 3" offset="24" size="3456"/>
			<output>
				<port id="0" precision="FP32" names="StatefulPartitionedCall/EfficientDet-D0/functional_1/stem_conv2d/Conv2D/ReadVariableOp:0">
					<dim>32</dim>
					<dim>3</dim>
					<dim>3</dim>
					<dim>3</dim>
				</port>
			</output>
		</layer>
		<layer id="6" name="StatefulPartitionedCall/EfficientDet-D0/functional_1/stem_conv2d/Conv2D" type="Convolution" version="opset1">
			<data strides="2, 2" dilations="1, 1" pads_begin="0, 0" pads_end="1, 1" auto_pad="same_upper"/>
			<input>
				<port id="0" precision="FP32">
					<dim>1</dim>
					<dim>3</dim>
					<dim>512</dim>
					<dim>512</dim>
				</port>
				<port id="1" precision="FP32">
					<dim>32</dim>
					<dim>3</dim>
					<dim>3</dim>
					<dim>3</dim>
				</port>
			</input>
			<output>
				<port id="2" precision="FP32">
					<dim>1</dim>
					<dim>32</dim>
					<dim>256</dim>
					<dim>256</dim>
				</port>
			</output>
		</layer>
		<layer id="7" name="data_add_4651846523" type="Const" version="opset1">
			<data element_type="f32" shape="1, 32, 1, 1" offset="3480" size="128"/>
			<output>
				<port id="0" precision="FP32">
					<dim>1</dim>
					<dim>32</dim>
					<dim>1</dim>
					<dim>1</dim>
				</port>
			</output>
		</layer>
		<layer id="8" name="StatefulPartitionedCall/EfficientDet-D0/functional_1/stem_bn/FusedBatchNormV3/variance/Fused_Add_" type="Add" version="opset1">
			<data auto_broadcast="numpy"/>
			<input>
				<port id="0" precision="FP32">
					<dim>1</dim>
					<dim>32</dim>
					<dim>256</dim>
					<dim>256</dim>
				</port>
				<port id="1" precision="FP32">
					<dim>1</dim>
					<dim>32</dim>
					<dim>1</dim>
					<dim>1</dim>
				</port>
			</input>
			<output>
				<port id="2" precision="FP32" names="StatefulPartitionedCall/EfficientDet-D0/functional_1/stem_bn/FusedBatchNormV3:0">
					<dim>1</dim>
					<dim>32</dim>
					<dim>256</dim>
					<dim>256</dim>
				</port>
			</output>
		</layer>
		<layer id="9" name="StatefulPartitionedCall/EfficientDet-D0/functional_1/stem_activation/mul" type="Swish" version="opset4">
			<input>
				<port id="0" precision="FP32">
					<dim>1</dim>
					<dim>32</dim>
					<dim>256</dim>
					<dim>256</dim>
				</port>
			</input>
			<output>
				<port id="1" precision="FP32" names="StatefulPartitionedCall/EfficientDet-D0/functional_1/stem_activation/mul:0">
					<dim>1</dim>
					<dim>32</dim>
					<dim>256</dim>
					<dim>256</dim>
				</port>
			</output>
		</layer>
		<layer id="10" name="StatefulPartitionedCall/EfficientDet-D0/functional_1/stack_0/block_0/depthwise_bn/FusedBatchNormV3/mean/Fused_Mul__copy" type="Const" version="opset1">
			<data element_type="f32" shape="32, 1, 1, 3, 3" offset="3608" size="1152"/>
			<output>
				<port id="0" precision="FP32" names="StatefulPartitionedCall/EfficientDet-D0/functional_1/stack_0/block_0/depthwise_conv2d/depthwise/ReadVariableOp:0">
					<dim>32</dim>
					<dim>1</dim>
					<dim>1</dim>
					<dim>3</dim>
					<dim>3</dim>
				</port>
			</output>
		</layer>
		<layer id="11" name="StatefulPartitionedCall/EfficientDet-D0/functional_1/stack_0/block_0/depthwise_conv2d/depthwise" type="GroupConvolution" version="opset1">
			<data strides="1, 1" pads_begin="1, 1" pads_end="1, 1" dilations="1, 1" auto_pad="same_upper"/>
			<input>
				<port id="0" precision="FP32">
					<dim>1</dim>
					<dim>32</dim>
					<dim>256</dim>
					<dim>256</dim>
				</port>
				<port id="1" precision="FP32">
					<dim>32</dim>
					<dim>1</dim>
					<dim>1</dim>
					<dim>3</dim>
					<dim>3</dim>
				</port>
			</input>
			<output>
				<port id="2" precision="FP32">
					<dim>1</dim>
					<dim>32</dim>
					<dim>256</dim>
					<dim>256</dim>
				</port>
			</output>
		</layer>
		<layer id="12" name="data_add_4652646531" type="Const" version="opset1">
			<data element_type="f32" shape="1, 32, 1, 1" offset="4760" size="128"/>
			<output>
				<port id="0" precision="FP32">
					<dim>1</dim>
					<dim>32</dim>
					<dim>1</dim>
					<dim>1</dim>
				</port>
			</output>
		</layer>
		<layer id="13" name="StatefulPartitionedCall/EfficientDet-D0/functional_1/stack_0/block_0/depthwise_bn/FusedBatchNormV3/variance/Fused_Add_" type="Add" version="opset1">
			<data auto_broadcast="numpy"/>
			<input>
				<port id="0" precision="FP32">
					<dim>1</dim>
					<dim>32</dim>
					<dim>256</dim>
					<dim>256</dim>
				</port>
				<port id="1" precision="FP32">
					<dim>1</dim>
					<dim>32</dim>
					<dim>1</dim>
					<dim>1</dim>
				</port>
			</input>
			<output>
				<port id="2" precision="FP32" names="StatefulPartitionedCall/EfficientDet-D0/functional_1/stack_0/block_0/depthwise_bn/FusedBatchNormV3:0">
					<dim>1</dim>
					<dim>32</dim>
					<dim>256</dim>
					<dim>256</dim>
				</port>
			</output>
		</layer>
		<layer id="14" name="StatefulPartitionedCall/EfficientDet-D0/functional_1/stack_0/block_0/depthwise_activation/mul" type="Swish" version="opset4">
			<input>
				<port id="0" precision="FP32">
					<dim>1</dim>
					<dim>32</dim>
					<dim>256</dim>
					<dim>256</dim>
				</port>
			</input>
			<output>
				<port id="1" precision="FP32">
					<dim>1</dim>
					<dim>32</dim>
					<dim>256</dim>
					<dim>256</dim>
				</port>
			</output>
		</layer>
		<layer id="15" name="StatefulPartitionedCall/EfficientDet-D0/functional_1/stack_0/block_0/se_squeeze/MeanGather6513084059" type="Const" version="opset1">
			<data element_type="i64" shape="2" offset="4888" size="16"/>
			<output>
				<port id="0" precision="I64">
					<dim>2</dim>
				</port>
			</output>
		</layer>
		<layer id="16" name="StatefulPartitionedCall/EfficientDet-D0/functional_1/stack_0/block_0/se_squeeze/Mean" type="ReduceMean" version="opset1">
			<data keep_dims="false"/>
			<input>
				<port id="0" precision="FP32">
					<dim>1</dim>
					<dim>32</dim>
					<dim>256</dim>
					<dim>256</dim>
				</port>
				<port id="1" precision="I64">
					<dim>2</dim>
				</port>
			</input>
			<output>
				<port id="2" precision="FP32" names="StatefulPartitionedCall/EfficientDet-D0/functional_1/stack_0/block_0/se_squeeze/Mean:0">
					<dim>1</dim>
					<dim>32</dim>
				</port>
			</output>
		</layer>
		<layer id="17" name="StatefulPartitionedCall/EfficientDet-D0/functional_1/stack_0/block_0/se_reshape/Reshape/shape" type="Const" version="opset1">
			<data element_type="i64" shape="4" offset="4904" size="32"/>
			<output>
				<port id="0" precision="I64" names="StatefulPartitionedCall/EfficientDet-D0/functional_1/stack_0/block_0/se_reshape/Reshape/shape:0">
					<dim>4</dim>
				</port>
			</output>
		</layer>
		<layer id="18" name="StatefulPartitionedCall/EfficientDet-D0/functional_1/stack_0/block_0/se_reshape/Reshape" type="Reshape" version="opset1">
			<data special_zero="false"/>
			<input>
				<port id="0" precision="FP32">
					<dim>1</dim>
					<dim>32</dim>
				</port>
				<port id="1" precision="I64">
					<dim>4</dim>
				</port>
			</input>
			<output>
				<port id="2" precision="FP32">
					<dim>1</dim>
					<dim>1</dim>
					<dim>1</dim>
					<dim>32</dim>
				</port>
			</output>
		</layer>
		<layer id="19" name="StatefulPartitionedCall/EfficientDet-D0/functional_1/stack_0/block_0/se_reshape/Reshape/Transpose/value5644782169" type="Const" version="opset1">
			<data element_type="i64" shape="4" offset="4936" size="32"/>
			<output>
				<port id="0" precision="I64">
					<dim>4</dim>
				</port>
			</output>
		</layer>
		<layer id="20" name="StatefulPartitionedCall/EfficientDet-D0/functional_1/stack_0/block_0/se_reshape/Reshape/Transpose" type="Transpose" version="opset1">
			<input>
				<port id="0" precision="FP32">
					<dim>1</dim>
					<dim>1</dim>
					<dim>1</dim>
					<dim>32</dim>
				</port>
				<port id="1" precision="I64">
					<dim>4</dim>
				</port>
			</input>
			<output>
				<port id="2" precision="FP32" names="StatefulPartitionedCall/EfficientDet-D0/functional_1/stack_0/block_0/se_reshape/Reshape:0">
					<dim>1</dim>
					<dim>32</dim>
					<dim>1</dim>
					<dim>1</dim>
				</port>
			</output>
		</layer>
		<layer id="21" name="StatefulPartitionedCall/EfficientDet-D0/functional_1/stack_0/block_0/se_reduce_conv2d/Conv2D/ReadVariableOp" type="Const" version="opset1">
			<data element_type="f32" shape="8, 32, 1, 1" offset="4968" size="1024"/>
			<output>
				<port id="0" precision="FP32" names="StatefulPartitionedCall/EfficientDet-D0/functional_1/stack_0/block_0/se_reduce_conv2d/Conv2D/ReadVariableOp:0">
					<dim>8</dim>
					<dim>32</dim>
					<dim>1</dim>
					<dim>1</dim>
				</port>
			</output>
		</layer>
		<layer id="22" name="StatefulPartitionedCall/EfficientDet-D0/functional_1/stack_0/block_0/se_reduce_conv2d/Conv2D" type="Convolution" version="opset1">
			<data strides="1, 1" dilations="1, 1" pads_begin="0, 0" pads_end="0, 0" auto_pad="same_upper"/>
			<input>
				<port id="0" precision="FP32">
					<dim>1</dim>
					<dim>32</dim>
					<dim>1</dim>
					<dim>1</dim>
				</port>
				<port id="1" precision="FP32">
					<dim>8</dim>
					<dim>32</dim>
					<dim>1</dim>
					<dim>1</dim>
				</port>
			</input>
			<output>
				<port id="2" precision="FP32" names="StatefulPartitionedCall/EfficientDet-D0/functional_1/stack_0/block_0/se_reduce_conv2d/Conv2D:0">
					<dim>1</dim>
					<dim>8</dim>
					<dim>1</dim>
					<dim>1</dim>
				</port>
			</output>
		</layer>
		<layer id="23" name="StatefulPartitionedCall/EfficientDet-D0/functional_1/stack_0/block_0/se_reduce_conv2d/BiasAdd/ReadVariableOp" type="Const" version="opset1">
			<data element_type="f32" shape="1, 8, 1, 1" offset="5992" size="32"/>
			<output>
				<port id="0" precision="FP32" names="StatefulPartitionedCall/EfficientDet-D0/functional_1/stack_0/block_0/se_reduce_conv2d/BiasAdd/ReadVariableOp:0">
					<dim>1</dim>
					<dim>8</dim>
					<dim>1</dim>
					<dim>1</dim>
				</port>
			</output>
		</layer>
		<layer id="24" name="StatefulPartitionedCall/EfficientDet-D0/functional_1/stack_0/block_0/se_reduce_conv2d/BiasAdd/Add" type="Add" version="opset1">
			<data auto_broadcast="numpy"/>
			<input>
				<port id="0" precision="FP32">
					<dim>1</dim>
					<dim>8</dim>
					<dim>1</dim>
					<dim>1</dim>
				</port>
				<port id="1" precision="FP32">
					<dim>1</dim>
					<dim>8</dim>
					<dim>1</dim>
					<dim>1</dim>
				</port>
			</input>
			<output>
				<port id="2" precision="FP32" names="StatefulPartitionedCall/EfficientDet-D0/functional_1/stack_0/block_0/se_reduce_conv2d/BiasAdd:0">
					<dim>1</dim>
					<dim>8</dim>
					<dim>1</dim>
					<dim>1</dim>
				</port>
			</output>
		</layer>
		<layer id="25" name="StatefulPartitionedCall/EfficientDet-D0/functional_1/stack_0/block_0/se_reduce_activation/mul" type="Swish" version="opset4">
			<input>
				<port id="0" precision="FP32">
					<dim>1</dim>
					<dim>8</dim>
					<dim>1</dim>
					<dim>1</dim>
				</port>
			</input>
			<output>
				<port id="1" precision="FP32" names="StatefulPartitionedCall/EfficientDet-D0/functional_1/stack_0/block_0/se_reduce_activation/mul:0">
					<dim>1</dim>
					<dim>8</dim>
					<dim>1</dim>
					<dim>1</dim>
				</port>
			</output>
		</layer>
		<layer id="26" name="StatefulPartitionedCall/EfficientDet-D0/functional_1/stack_0/block_0/se_expand_conv2d/Conv2D/ReadVariableOp" type="Const" version="opset1">
			<data element_type="f32" shape="32, 8, 1, 1" offset="6024" size="1024"/>
			<output>
				<port id="0" precision="FP32" names="StatefulPartitionedCall/EfficientDet-D0/functional_1/stack_0/block_0/se_expand_conv2d/Conv2D/ReadVariableOp:0">
					<dim>32</dim>
					<dim>8</dim>
					<dim>1</dim>
					<dim>1</dim>
				</port>
			</output>
		</layer>
		<layer id="27" name="StatefulPartitionedCall/EfficientDet-D0/functional_1/stack_0/block_0/se_expand_conv2d/Conv2D" type="Convolution" version="opset1">
			<data strides="1, 1" dilations="1, 1" pads_begin="0, 0" pads_end="0, 0" auto_pad="same_upper"/>
			<input>
				<port id="0" precision="FP32">
					<dim>1</dim>
					<dim>8</dim>
					<dim>1</dim>
					<dim>1</dim>
				</port>
				<port id="1" precision="FP32">
					<dim>32</dim>
					<dim>8</dim>
					<dim>1</dim>
					<dim>1</dim>
				</port>
			</input>
			<output>
				<port id="2" precision="FP32" names="StatefulPartitionedCall/EfficientDet-D0/functional_1/stack_0/block_0/se_expand_conv2d/Conv2D:0">
					<dim>1</dim>
					<dim>32</dim>
					<dim>1</dim>
					<dim>1</dim>
				</port>
			</output>
		</layer>
		<layer id="28" name="StatefulPartitionedCall/EfficientDet-D0/functional_1/stack_0/block_0/se_expand_conv2d/BiasAdd/ReadVariableOp" type="Const" version="opset1">
			<data element_type="f32" shape="1, 32, 1, 1" offset="7048" size="128"/>
			<output>
				<port id="0" precision="FP32" names="StatefulPartitionedCall/EfficientDet-D0/functional_1/stack_0/block_0/se_expand_conv2d/BiasAdd/ReadVariableOp:0">
					<dim>1</dim>
					<dim>32</dim>
					<dim>1</dim>
					<dim>1</dim>
				</port>
			</output>
		</layer>
		<layer id="29" name="StatefulPartitionedCall/EfficientDet-D0/functional_1/stack_0/block_0/se_expand_conv2d/BiasAdd/Add" type="Add" version="opset1">
			<data auto_broadcast="numpy"/>
			<input>
				<port id="0" precision="FP32">
					<dim>1</dim>
					<dim>32</dim>
					<dim>1</dim>
					<dim>1</dim>
				</port>
				<port id="1" precision="FP32">
					<dim>1</dim>
					<dim>32</dim>
					<dim>1</dim>
					<dim>1</dim>
				</port>
			</input>
			<output>
				<port id="2" precision="FP32" names="StatefulPartitionedCall/EfficientDet-D0/functional_1/stack_0/block_0/se_expand_conv2d/BiasAdd:0">
					<dim>1</dim>
					<dim>32</dim>
					<dim>1</dim>
					<dim>1</dim>
				</port>
			</output>
		</layer>
		<layer id="30" name="StatefulPartitionedCall/EfficientDet-D0/functional_1/stack_0/block_0/se_expand_activation/Sigmoid" type="Sigmoid" version="opset1">
			<input>
				<port id="0" precision="FP32">
					<dim>1</dim>
					<dim>32</dim>
					<dim>1</dim>
					<dim>1</dim>
				</port>
			</input>
			<output>
				<port id="1" precision="FP32" names="StatefulPartitionedCall/EfficientDet-D0/functional_1/stack_0/block_0/se_expand_activation/Sigmoid:0">
					<dim>1</dim>
					<dim>32</dim>
					<dim>1</dim>
					<dim>1</dim>
				</port>
			</output>
		</layer>
		<layer id="31" name="StatefulPartitionedCall/EfficientDet-D0/functional_1/stack_0/block_0/se_excite/mul" type="Multiply" version="opset1">
			<data auto_broadcast="numpy"/>
			<input>
				<port id="0" precision="FP32">
					<dim>1</dim>
					<dim>32</dim>
					<dim>256</dim>
					<dim>256</dim>
				</port>
				<port id="1" precision="FP32">
					<dim>1</dim>
					<dim>32</dim>
					<dim>1</dim>
					<dim>1</dim>
				</port>
			</input>
			<output>
				<port id="2" precision="FP32" names="StatefulPartitionedCall/EfficientDet-D0/functional_1/stack_0/block_0/se_excite/mul:0">
					<dim>1</dim>
					<dim>32</dim>
					<dim>256</dim>
					<dim>256</dim>
				</port>
			</output>
		</layer>
		<layer id="32" name="StatefulPartitionedCall/EfficientDet-D0/functional_1/stack_0/block_0/project_bn/FusedBatchNormV3/mean/Fused_Mul__copy" type="Const" version="opset1">
			<data element_type="f32" shape="16, 32, 1, 1" offset="7176" size="2048"/>
			<output>
				<port id="0" precision="FP32" names="StatefulPartitionedCall/EfficientDet-D0/functional_1/stack_0/block_0/project_conv2d/Conv2D/ReadVariableOp:0">
					<dim>16</dim>
					<dim>32</dim>
					<dim>1</dim>
					<dim>1</dim>
				</port>
			</output>
		</layer>
		<layer id="33" name="StatefulPartitionedCall/EfficientDet-D0/functional_1/stack_0/block_0/project_conv2d/Conv2D" type="Convolution" version="opset1">
			<data strides="1, 1" dilations="1, 1" pads_begin="0, 0" pads_end="0, 0" auto_pad="same_upper"/>
			<input>
				<port id="0" precision="FP32">
					<dim>1</dim>
					<dim>32</dim>
					<dim>256</dim>
					<dim>256</dim>
				</port>
				<port id="1" precision="FP32">
					<dim>16</dim>
					<dim>32</dim>
					<dim>1</dim>
					<dim>1</dim>
				</port>
			</input>
			<output>
				<port id="2" precision="FP32">
					<dim>1</dim>
					<dim>16</dim>
					<dim>256</dim>
					<dim>256</dim>
				</port>
			</output>
		</layer>
		<layer id="34" name="data_add_4653446539" type="Const" version="opset1">
			<data element_type="f32" shape="1, 16, 1, 1" offset="9224" size="64"/>
			<output>
				<port id="0" precision="FP32">
					<dim>1</dim>
					<dim>16</dim>
					<dim>1</dim>
					<dim>1</dim>
				</port>
			</output>
		</layer>
		<layer id="35" name="StatefulPartitionedCall/EfficientDet-D0/functional_1/stack_0/block_0/project_bn/FusedBatchNormV3/variance/Fused_Add_" type="Add" version="opset1">
			<data auto_broadcast="numpy"/>
			<input>
				<port id="0" precision="FP32">
					<dim>1</dim>
					<dim>16</dim>
					<dim>256</dim>
					<dim>256</dim>
				</port>
				<port id="1" precision="FP32">
					<dim>1</dim>
					<dim>16</dim>
					<dim>1</dim>
					<dim>1</dim>
				</port>
			</input>
			<output>
				<port id="2" precision="FP32" names="StatefulPartitionedCall/EfficientDet-D0/functional_1/stack_0/block_0/id/Identity:0,StatefulPartitionedCall/EfficientDet-D0/functional_1/stack_0/block_0/project_bn/FusedBatchNormV3:0">
					<dim>1</dim>
					<dim>16</dim>
					<dim>256</dim>
					<dim>256</dim>
				</port>
			</output>
		</layer>
		<layer id="36" name="StatefulPartitionedCall/EfficientDet-D0/functional_1/stack_1/block_0/expand_bn/FusedBatchNormV3/mean/Fused_Mul__copy" type="Const" version="opset1">
			<data element_type="f32" shape="96, 16, 1, 1" offset="9288" size="6144"/>
			<output>
				<port id="0" precision="FP32" names="StatefulPartitionedCall/EfficientDet-D0/functional_1/stack_1/block_0/expand_conv2d/Conv2D/ReadVariableOp:0">
					<dim>96</dim>
					<dim>16</dim>
					<dim>1</dim>
					<dim>1</dim>
				</port>
			</output>
		</layer>
		<layer id="37" name="StatefulPartitionedCall/EfficientDet-D0/functional_1/stack_1/block_0/expand_conv2d/Conv2D" type="Convolution" version="opset1">
			<data strides="1, 1" dilations="1, 1" pads_begin="0, 0" pads_end="0, 0" auto_pad="same_upper"/>
			<input>
				<port id="0" precision="FP32">
					<dim>1</dim>
					<dim>16</dim>
					<dim>256</dim>
					<dim>256</dim>
				</port>
				<port id="1" precision="FP32">
					<dim>96</dim>
					<dim>16</dim>
					<dim>1</dim>
					<dim>1</dim>
				</port>
			</input>
			<output>
				<port id="2" precision="FP32">
					<dim>1</dim>
					<dim>96</dim>
					<dim>256</dim>
					<dim>256</dim>
				</port>
			</output>
		</layer>
		<layer id="38" name="data_add_4654246547" type="Const" version="opset1">
			<data element_type="f32" shape="1, 96, 1, 1" offset="15432" size="384"/>
			<output>
				<port id="0" precision="FP32">
					<dim>1</dim>
					<dim>96</dim>
					<dim>1</dim>
					<dim>1</dim>
				</port>
			</output>
		</layer>
		<layer id="39" name="StatefulPartitionedCall/EfficientDet-D0/functional_1/stack_1/block_0/expand_bn/FusedBatchNormV3/variance/Fused_Add_" type="Add" version="opset1">
			<data auto_broadcast="numpy"/>
			<input>
				<port id="0" precision="FP32">
					<dim>1</dim>
					<dim>96</dim>
					<dim>256</dim>
					<dim>256</dim>
				</port>
				<port id="1" precision="FP32">
					<dim>1</dim>
					<dim>96</dim>
					<dim>1</dim>
					<dim>1</dim>
				</port>
			</input>
			<output>
				<port id="2" precision="FP32" names="StatefulPartitionedCall/EfficientDet-D0/functional_1/stack_1/block_0/expand_bn/FusedBatchNormV3:0">
					<dim>1</dim>
					<dim>96</dim>
					<dim>256</dim>
					<dim>256</dim>
				</port>
			</output>
		</layer>
		<layer id="40" name="StatefulPartitionedCall/EfficientDet-D0/functional_1/stack_1/block_0/expand_activation/mul" type="Swish" version="opset4">
			<input>
				<port id="0" precision="FP32">
					<dim>1</dim>
					<dim>96</dim>
					<dim>256</dim>
					<dim>256</dim>
				</port>
			</input>
			<output>
				<port id="1" precision="FP32" names="StatefulPartitionedCall/EfficientDet-D0/functional_1/stack_1/block_0/expand_activation/mul:0">
					<dim>1</dim>
					<dim>96</dim>
					<dim>256</dim>
					<dim>256</dim>
				</port>
			</output>
		</layer>
		<layer id="41" name="StatefulPartitionedCall/EfficientDet-D0/functional_1/stack_1/block_0/depthwise_bn/FusedBatchNormV3/mean/Fused_Mul__copy" type="Const" version="opset1">
			<data element_type="f32" shape="96, 1, 1, 3, 3" offset="15816" size="3456"/>
			<output>
				<port id="0" precision="FP32" names="StatefulPartitionedCall/EfficientDet-D0/functional_1/stack_1/block_0/depthwise_conv2d/depthwise/ReadVariableOp:0">
					<dim>96</dim>
					<dim>1</dim>
					<dim>1</dim>
					<dim>3</dim>
					<dim>3</dim>
				</port>
			</output>
		</layer>
		<layer id="42" name="StatefulPartitionedCall/EfficientDet-D0/functional_1/stack_1/block_0/depthwise_conv2d/depthwise" type="GroupConvolution" version="opset1">
			<data strides="2, 2" pads_begin="0, 0" pads_end="1, 1" dilations="1, 1" auto_pad="same_upper"/>
			<input>
				<port id="0" precision="FP32">
					<dim>1</dim>
					<dim>96</dim>
					<dim>256</dim>
					<dim>256</dim>
				</port>
				<port id="1" precision="FP32">
					<dim>96</dim>
					<dim>1</dim>
					<dim>1</dim>
					<dim>3</dim>
					<dim>3</dim>
				</port>
			</input>
			<output>
				<port id="2" precision="FP32">
					<dim>1</dim>
					<dim>96</dim>
					<dim>128</dim>
					<dim>128</dim>
				</port>
			</output>
		</layer>
		<layer id="43" name="data_add_4655046555" type="Const" version="opset1">
			<data element_type="f32" shape="1, 96, 1, 1" offset="19272" size="384"/>
			<output>
				<port id="0" precision="FP32">
					<dim>1</dim>
					<dim>96</dim>
					<dim>1</dim>
					<dim>1</dim>
				</port>
			</output>
		</layer>
		<layer id="44" name="StatefulPartitionedCall/EfficientDet-D0/functional_1/stack_1/block_0/depthwise_bn/FusedBatchNormV3/variance/Fused_Add_" type="Add" version="opset1">
			<data auto_broadcast="numpy"/>
			<input>
				<port id="0" precision="FP32">
					<dim>1</dim>
					<dim>96</dim>
					<dim>128</dim>
					<dim>128</dim>
				</port>
				<port id="1" precision="FP32">
					<dim>1</dim>
					<dim>96</dim>
					<dim>1</dim>
					<dim>1</dim>
				</port>
			</input>
			<output>
				<port id="2" precision="FP32" names="StatefulPartitionedCall/EfficientDet-D0/functional_1/stack_1/block_0/depthwise_bn/FusedBatchNormV3:0">
					<dim>1</dim>
					<dim>96</dim>
					<dim>128</dim>
					<dim>128</dim>
				</port>
			</output>
		</layer>
		<layer id="45" name="StatefulPartitionedCall/EfficientDet-D0/functional_1/stack_1/block_0/depthwise_activation/mul" type="Swish" version="opset4">
			<input>
				<port id="0" precision="FP32">
					<dim>1</dim>
					<dim>96</dim>
					<dim>128</dim>
					<dim>128</dim>
				</port>
			</input>
			<output>
				<port id="1" precision="FP32">
					<dim>1</dim>
					<dim>96</dim>
					<dim>128</dim>
					<dim>128</dim>
				</port>
			</output>
		</layer>
		<layer id="46" name="StatefulPartitionedCall/EfficientDet-D0/functional_1/stack_1/block_0/se_squeeze/MeanGather6511883189" type="Const" version="opset1">
			<data element_type="i64" shape="2" offset="4888" size="16"/>
			<output>
				<port id="0" precision="I64">
					<dim>2</dim>
				</port>
			</output>
		</layer>
		<layer id="47" name="StatefulPartitionedCall/EfficientDet-D0/functional_1/stack_1/block_0/se_squeeze/Mean" type="ReduceMean" version="opset1">
			<data keep_dims="false"/>
			<input>
				<port id="0" precision="FP32">
					<dim>1</dim>
					<dim>96</dim>
					<dim>128</dim>
					<dim>128</dim>
				</port>
				<port id="1" precision="I64">
					<dim>2</dim>
				</port>
			</input>
			<output>
				<port id="2" precision="FP32" names="StatefulPartitionedCall/EfficientDet-D0/functional_1/stack_1/block_0/se_squeeze/Mean:0">
					<dim>1</dim>
					<dim>96</dim>
				</port>
			</output>
		</layer>
		<layer id="48" name="StatefulPartitionedCall/EfficientDet-D0/functional_1/stack_1/block_0/se_reshape/Reshape/shape" type="Const" version="opset1">
			<data element_type="i64" shape="4" offset="19656" size="32"/>
			<output>
				<port id="0" precision="I64" names="StatefulPartitionedCall/EfficientDet-D0/functional_1/stack_1/block_0/se_reshape/Reshape/shape:0">
					<dim>4</dim>
				</port>
			</output>
		</layer>
		<layer id="49" name="StatefulPartitionedCall/EfficientDet-D0/functional_1/stack_1/block_0/se_reshape/Reshape" type="Reshape" version="opset1">
			<data special_zero="false"/>
			<input>
				<port id="0" precision="FP32">
					<dim>1</dim>
					<dim>96</dim>
				</port>
				<port id="1" precision="I64">
					<dim>4</dim>
				</port>
			</input>
			<output>
				<port id="2" precision="FP32">
					<dim>1</dim>
					<dim>1</dim>
					<dim>1</dim>
					<dim>96</dim>
				</port>
			</output>
		</layer>
		<layer id="50" name="StatefulPartitionedCall/EfficientDet-D0/functional_1/stack_1/block_0/se_reshape/Reshape/Transpose/value5645182037" type="Const" version="opset1">
			<data element_type="i64" shape="4" offset="4936" size="32"/>
			<output>
				<port id="0" precision="I64">
					<dim>4</dim>
				</port>
			</output>
		</layer>
		<layer id="51" name="StatefulPartitionedCall/EfficientDet-D0/functional_1/stack_1/block_0/se_reshape/Reshape/Transpose" type="Transpose" version="opset1">
			<input>
				<port id="0" precision="FP32">
					<dim>1</dim>
					<dim>1</dim>
					<dim>1</dim>
					<dim>96</dim>
				</port>
				<port id="1" precision="I64">
					<dim>4</dim>
				</port>
			</input>
			<output>
				<port id="2" precision="FP32" names="StatefulPartitionedCall/EfficientDet-D0/functional_1/stack_1/block_0/se_reshape/Reshape:0">
					<dim>1</dim>
					<dim>96</dim>
					<dim>1</dim>
					<dim>1</dim>
				</port>
			</output>
		</layer>
		<layer id="52" name="StatefulPartitionedCall/EfficientDet-D0/functional_1/stack_1/block_0/se_reduce_conv2d/Conv2D/ReadVariableOp" type="Const" version="opset1">
			<data element_type="f32" shape="4, 96, 1, 1" offset="19688" size="1536"/>
			<output>
				<port id="0" precision="FP32" names="StatefulPartitionedCall/EfficientDet-D0/functional_1/stack_1/block_0/se_reduce_conv2d/Conv2D/ReadVariableOp:0">
					<dim>4</dim>
					<dim>96</dim>
					<dim>1</dim>
					<dim>1</dim>
				</port>
			</output>
		</layer>
		<layer id="53" name="StatefulPartitionedCall/EfficientDet-D0/functional_1/stack_1/block_0/se_reduce_conv2d/Conv2D" type="Convolution" version="opset1">
			<data strides="1, 1" dilations="1, 1" pads_begin="0, 0" pads_end="0, 0" auto_pad="same_upper"/>
			<input>
				<port id="0" precision="FP32">
					<dim>1</dim>
					<dim>96</dim>
					<dim>1</dim>
					<dim>1</dim>
				</port>
				<port id="1" precision="FP32">
					<dim>4</dim>
					<dim>96</dim>
					<dim>1</dim>
					<dim>1</dim>
				</port>
			</input>
			<output>
				<port id="2" precision="FP32" names="StatefulPartitionedCall/EfficientDet-D0/functional_1/stack_1/block_0/se_reduce_conv2d/Conv2D:0">
					<dim>1</dim>
					<dim>4</dim>
					<dim>1</dim>
					<dim>1</dim>
				</port>
			</output>
		</layer>
		<layer id="54" name="StatefulPartitionedCall/EfficientDet-D0/functional_1/stack_1/block_0/se_reduce_conv2d/BiasAdd/ReadVariableOp" type="Const" version="opset1">
			<data element_type="f32" shape="1, 4, 1, 1" offset="21224" size="16"/>
			<output>
				<port id="0" precision="FP32" names="StatefulPartitionedCall/EfficientDet-D0/functional_1/stack_1/block_0/se_reduce_conv2d/BiasAdd/ReadVariableOp:0">
					<dim>1</dim>
					<dim>4</dim>
					<dim>1</dim>
					<dim>1</dim>
				</port>
			</output>
		</layer>
		<layer id="55" name="StatefulPartitionedCall/EfficientDet-D0/functional_1/stack_1/block_0/se_reduce_conv2d/BiasAdd/Add" type="Add" version="opset1">
			<data auto_broadcast="numpy"/>
			<input>
				<port id="0" precision="FP32">
					<dim>1</dim>
					<dim>4</dim>
					<dim>1</dim>
					<dim>1</dim>
				</port>
				<port id="1" precision="FP32">
					<dim>1</dim>
					<dim>4</dim>
					<dim>1</dim>
					<dim>1</dim>
				</port>
			</input>
			<output>
				<port id="2" precision="FP32" names="StatefulPartitionedCall/EfficientDet-D0/functional_1/stack_1/block_0/se_reduce_conv2d/BiasAdd:0">
					<dim>1</dim>
					<dim>4</dim>
					<dim>1</dim>
					<dim>1</dim>
				</port>
			</output>
		</layer>
		<layer id="56" name="StatefulPartitionedCall/EfficientDet-D0/functional_1/stack_1/block_0/se_reduce_activation/mul" type="Swish" version="opset4">
			<input>
				<port id="0" precision="FP32">
					<dim>1</dim>
					<dim>4</dim>
					<dim>1</dim>
					<dim>1</dim>
				</port>
			</input>
			<output>
				<port id="1" precision="FP32" names="StatefulPartitionedCall/EfficientDet-D0/functional_1/stack_1/block_0/se_reduce_activation/mul:0">
					<dim>1</dim>
					<dim>4</dim>
					<dim>1</dim>
					<dim>1</dim>
				</port>
			</output>
		</layer>
		<layer id="57" name="StatefulPartitionedCall/EfficientDet-D0/functional_1/stack_1/block_0/se_expand_conv2d/Conv2D/ReadVariableOp" type="Const" version="opset1">
			<data element_type="f32" shape="96, 4, 1, 1" offset="21240" size="1536"/>
			<output>
				<port id="0" precision="FP32" names="StatefulPartitionedCall/EfficientDet-D0/functional_1/stack_1/block_0/se_expand_conv2d/Conv2D/ReadVariableOp:0">
					<dim>96</dim>
					<dim>4</dim>
					<dim>1</dim>
					<dim>1</dim>
				</port>
			</output>
		</layer>
		<layer id="58" name="StatefulPartitionedCall/EfficientDet-D0/functional_1/stack_1/block_0/se_expand_conv2d/Conv2D" type="Convolution" version="opset1">
			<data strides="1, 1" dilations="1, 1" pads_begin="0, 0" pads_end="0, 0" auto_pad="same_upper"/>
			<input>
				<port id="0" precision="FP32">
					<dim>1</dim>
					<dim>4</dim>
					<dim>1</dim>
					<dim>1</dim>
				</port>
				<port id="1" precision="FP32">
					<dim>96</dim>
					<dim>4</dim>
					<dim>1</dim>
					<dim>1</dim>
				</port>
			</input>
			<output>
				<port id="2" precision="FP32" names="StatefulPartitionedCall/EfficientDet-D0/functional_1/stack_1/block_0/se_expand_conv2d/Conv2D:0">
					<dim>1</dim>
					<dim>96</dim>
					<dim>1</dim>
					<dim>1</dim>
				</port>
			</output>
		</layer>
		<layer id="59" name="StatefulPartitionedCall/EfficientDet-D0/functional_1/stack_1/block_0/se_expand_conv2d/BiasAdd/ReadVariableOp" type="Const" version="opset1">
			<data element_type="f32" shape="1, 96, 1, 1" offset="22776" size="384"/>
			<output>
				<port id="0" precision="FP32" names="StatefulPartitionedCall/EfficientDet-D0/functional_1/stack_1/block_0/se_expand_conv2d/BiasAdd/ReadVariableOp:0">
					<dim>1</dim>
					<dim>96</dim>
					<dim>1</dim>
					<dim>1</dim>
				</port>
			</output>
		</layer>
		<layer id="60" name="StatefulPartitionedCall/EfficientDet-D0/functional_1/stack_1/block_0/se_expand_conv2d/BiasAdd/Add" type="Add" version="opset1">
			<data auto_broadcast="numpy"/>
			<input>
				<port id="0" precision="FP32">
					<dim>1</dim>
					<dim>96</dim>
					<dim>1</dim>
					<dim>1</dim>
				</port>
				<port id="1" precision="FP32">
					<dim>1</dim>
					<dim>96</dim>
					<dim>1</dim>
					<dim>1</dim>
				</port>
			</input>
			<output>
				<port id="2" precision="FP32" names="StatefulPartitionedCall/EfficientDet-D0/functional_1/stack_1/block_0/se_expand_conv2d/BiasAdd:0">
					<dim>1</dim>
					<dim>96</dim>
					<dim>1</dim>
					<dim>1</dim>
				</port>
			</output>
		</layer>
		<layer id="61" name="StatefulPartitionedCall/EfficientDet-D0/functional_1/stack_1/block_0/se_expand_activation/Sigmoid" type="Sigmoid" version="opset1">
			<input>
				<port id="0" precision="FP32">
					<dim>1</dim>
					<dim>96</dim>
					<dim>1</dim>
					<dim>1</dim>
				</port>
			</input>
			<output>
				<port id="1" precision="FP32" names="StatefulPartitionedCall/EfficientDet-D0/functional_1/stack_1/block_0/se_expand_activation/Sigmoid:0">
					<dim>1</dim>
					<dim>96</dim>
					<dim>1</dim>
					<dim>1</dim>
				</port>
			</output>
		</layer>
		<layer id="62" name="StatefulPartitionedCall/EfficientDet-D0/functional_1/stack_1/block_0/se_excite/mul" type="Multiply" version="opset1">
			<data auto_broadcast="numpy"/>
			<input>
				<port id="0" precision="FP32">
					<dim>1</dim>
					<dim>96</dim>
					<dim>128</dim>
					<dim>128</dim>
				</port>
				<port id="1" precision="FP32">
					<dim>1</dim>
					<dim>96</dim>
					<dim>1</dim>
					<dim>1</dim>
				</port>
			</input>
			<output>
				<port id="2" precision="FP32" names="StatefulPartitionedCall/EfficientDet-D0/functional_1/stack_1/block_0/se_excite/mul:0">
					<dim>1</dim>
					<dim>96</dim>
					<dim>128</dim>
					<dim>128</dim>
				</port>
			</output>
		</layer>
		<layer id="63" name="StatefulPartitionedCall/EfficientDet-D0/functional_1/stack_1/block_0/project_bn/FusedBatchNormV3/mean/Fused_Mul__copy" type="Const" version="opset1">
			<data element_type="f32" shape="24, 96, 1, 1" offset="23160" size="9216"/>
			<output>
				<port id="0" precision="FP32" names="StatefulPartitionedCall/EfficientDet-D0/functional_1/stack_1/block_0/project_conv2d/Conv2D/ReadVariableOp:0">
					<dim>24</dim>
					<dim>96</dim>
					<dim>1</dim>
					<dim>1</dim>
				</port>
			</output>
		</layer>
		<layer id="64" name="StatefulPartitionedCall/EfficientDet-D0/functional_1/stack_1/block_0/project_conv2d/Conv2D" type="Convolution" version="opset1">
			<data strides="1, 1" dilations="1, 1" pads_begin="0, 0" pads_end="0, 0" auto_pad="same_upper"/>
			<input>
				<port id="0" precision="FP32">
					<dim>1</dim>
					<dim>96</dim>
					<dim>128</dim>
					<dim>128</dim>
				</port>
				<port id="1" precision="FP32">
					<dim>24</dim>
					<dim>96</dim>
					<dim>1</dim>
					<dim>1</dim>
				</port>
			</input>
			<output>
				<port id="2" precision="FP32">
					<dim>1</dim>
					<dim>24</dim>
					<dim>128</dim>
					<dim>128</dim>
				</port>
			</output>
		</layer>
		<layer id="65" name="data_add_4655846563" type="Const" version="opset1">
			<data element_type="f32" shape="1, 24, 1, 1" offset="32376" size="96"/>
			<output>
				<port id="0" precision="FP32">
					<dim>1</dim>
					<dim>24</dim>
					<dim>1</dim>
					<dim>1</dim>
				</port>
			</output>
		</layer>
		<layer id="66" name="StatefulPartitionedCall/EfficientDet-D0/functional_1/stack_1/block_0/project_bn/FusedBatchNormV3/variance/Fused_Add_" type="Add" version="opset1">
			<data auto_broadcast="numpy"/>
			<input>
				<port id="0" precision="FP32">
					<dim>1</dim>
					<dim>24</dim>
					<dim>128</dim>
					<dim>128</dim>
				</port>
				<port id="1" precision="FP32">
					<dim>1</dim>
					<dim>24</dim>
					<dim>1</dim>
					<dim>1</dim>
				</port>
			</input>
			<output>
				<port id="2" precision="FP32" names="StatefulPartitionedCall/EfficientDet-D0/functional_1/stack_1/block_0/id/Identity:0,StatefulPartitionedCall/EfficientDet-D0/functional_1/stack_1/block_0/project_bn/FusedBatchNormV3:0">
					<dim>1</dim>
					<dim>24</dim>
					<dim>128</dim>
					<dim>128</dim>
				</port>
			</output>
		</layer>
		<layer id="67" name="StatefulPartitionedCall/EfficientDet-D0/functional_1/stack_1/block_1/expand_bn/FusedBatchNormV3/mean/Fused_Mul__copy" type="Const" version="opset1">
			<data element_type="f32" shape="144, 24, 1, 1" offset="32472" size="13824"/>
			<output>
				<port id="0" precision="FP32" names="StatefulPartitionedCall/EfficientDet-D0/functional_1/stack_1/block_1/expand_conv2d/Conv2D/ReadVariableOp:0">
					<dim>144</dim>
					<dim>24</dim>
					<dim>1</dim>
					<dim>1</dim>
				</port>
			</output>
		</layer>
		<layer id="68" name="StatefulPartitionedCall/EfficientDet-D0/functional_1/stack_1/block_1/expand_conv2d/Conv2D" type="Convolution" version="opset1">
			<data strides="1, 1" dilations="1, 1" pads_begin="0, 0" pads_end="0, 0" auto_pad="same_upper"/>
			<input>
				<port id="0" precision="FP32">
					<dim>1</dim>
					<dim>24</dim>
					<dim>128</dim>
					<dim>128</dim>
				</port>
				<port id="1" precision="FP32">
					<dim>144</dim>
					<dim>24</dim>
					<dim>1</dim>
					<dim>1</dim>
				</port>
			</input>
			<output>
				<port id="2" precision="FP32">
					<dim>1</dim>
					<dim>144</dim>
					<dim>128</dim>
					<dim>128</dim>
				</port>
			</output>
		</layer>
		<layer id="69" name="data_add_4656646571" type="Const" version="opset1">
			<data element_type="f32" shape="1, 144, 1, 1" offset="46296" size="576"/>
			<output>
				<port id="0" precision="FP32">
					<dim>1</dim>
					<dim>144</dim>
					<dim>1</dim>
					<dim>1</dim>
				</port>
			</output>
		</layer>
		<layer id="70" name="StatefulPartitionedCall/EfficientDet-D0/functional_1/stack_1/block_1/expand_bn/FusedBatchNormV3/variance/Fused_Add_" type="Add" version="opset1">
			<data auto_broadcast="numpy"/>
			<input>
				<port id="0" precision="FP32">
					<dim>1</dim>
					<dim>144</dim>
					<dim>128</dim>
					<dim>128</dim>
				</port>
				<port id="1" precision="FP32">
					<dim>1</dim>
					<dim>144</dim>
					<dim>1</dim>
					<dim>1</dim>
				</port>
			</input>
			<output>
				<port id="2" precision="FP32" names="StatefulPartitionedCall/EfficientDet-D0/functional_1/stack_1/block_1/expand_bn/FusedBatchNormV3:0">
					<dim>1</dim>
					<dim>144</dim>
					<dim>128</dim>
					<dim>128</dim>
				</port>
			</output>
		</layer>
		<layer id="71" name="StatefulPartitionedCall/EfficientDet-D0/functional_1/stack_1/block_1/expand_activation/mul" type="Swish" version="opset4">
			<input>
				<port id="0" precision="FP32">
					<dim>1</dim>
					<dim>144</dim>
					<dim>128</dim>
					<dim>128</dim>
				</port>
			</input>
			<output>
				<port id="1" precision="FP32" names="StatefulPartitionedCall/EfficientDet-D0/functional_1/stack_1/block_1/expand_activation/mul:0">
					<dim>1</dim>
					<dim>144</dim>
					<dim>128</dim>
					<dim>128</dim>
				</port>
			</output>
		</layer>
		<layer id="72" name="StatefulPartitionedCall/EfficientDet-D0/functional_1/stack_1/block_1/depthwise_bn/FusedBatchNormV3/mean/Fused_Mul__copy" type="Const" version="opset1">
			<data element_type="f32" shape="144, 1, 1, 3, 3" offset="46872" size="5184"/>
			<output>
				<port id="0" precision="FP32" names="StatefulPartitionedCall/EfficientDet-D0/functional_1/stack_1/block_1/depthwise_conv2d/depthwise/ReadVariableOp:0">
					<dim>144</dim>
					<dim>1</dim>
					<dim>1</dim>
					<dim>3</dim>
					<dim>3</dim>
				</port>
			</output>
		</layer>
		<layer id="73" name="StatefulPartitionedCall/EfficientDet-D0/functional_1/stack_1/block_1/depthwise_conv2d/depthwise" type="GroupConvolution" version="opset1">
			<data strides="1, 1" pads_begin="1, 1" pads_end="1, 1" dilations="1, 1" auto_pad="same_upper"/>
			<input>
				<port id="0" precision="FP32">
					<dim>1</dim>
					<dim>144</dim>
					<dim>128</dim>
					<dim>128</dim>
				</port>
				<port id="1" precision="FP32">
					<dim>144</dim>
					<dim>1</dim>
					<dim>1</dim>
					<dim>3</dim>
					<dim>3</dim>
				</port>
			</input>
			<output>
				<port id="2" precision="FP32">
					<dim>1</dim>
					<dim>144</dim>
					<dim>128</dim>
					<dim>128</dim>
				</port>
			</output>
		</layer>
		<layer id="74" name="data_add_4657446579" type="Const" version="opset1">
			<data element_type="f32" shape="1, 144, 1, 1" offset="52056" size="576"/>
			<output>
				<port id="0" precision="FP32">
					<dim>1</dim>
					<dim>144</dim>
					<dim>1</dim>
					<dim>1</dim>
				</port>
			</output>
		</layer>
		<layer id="75" name="StatefulPartitionedCall/EfficientDet-D0/functional_1/stack_1/block_1/depthwise_bn/FusedBatchNormV3/variance/Fused_Add_" type="Add" version="opset1">
			<data auto_broadcast="numpy"/>
			<input>
				<port id="0" precision="FP32">
					<dim>1</dim>
					<dim>144</dim>
					<dim>128</dim>
					<dim>128</dim>
				</port>
				<port id="1" precision="FP32">
					<dim>1</dim>
					<dim>144</dim>
					<dim>1</dim>
					<dim>1</dim>
				</port>
			</input>
			<output>
				<port id="2" precision="FP32" names="StatefulPartitionedCall/EfficientDet-D0/functional_1/stack_1/block_1/depthwise_bn/FusedBatchNormV3:0">
					<dim>1</dim>
					<dim>144</dim>
					<dim>128</dim>
					<dim>128</dim>
				</port>
			</output>
		</layer>
		<layer id="76" name="StatefulPartitionedCall/EfficientDet-D0/functional_1/stack_1/block_1/depthwise_activation/mul" type="Swish" version="opset4">
			<input>
				<port id="0" precision="FP32">
					<dim>1</dim>
					<dim>144</dim>
					<dim>128</dim>
					<dim>128</dim>
				</port>
			</input>
			<output>
				<port id="1" precision="FP32">
					<dim>1</dim>
					<dim>144</dim>
					<dim>128</dim>
					<dim>128</dim>
				</port>
			</output>
		</layer>
		<layer id="77" name="StatefulPartitionedCall/EfficientDet-D0/functional_1/stack_1/block_1/se_squeeze/MeanGather6509882319" type="Const" version="opset1">
			<data element_type="i64" shape="2" offset="4888" size="16"/>
			<output>
				<port id="0" precision="I64">
					<dim>2</dim>
				</port>
			</output>
		</layer>
		<layer id="78" name="StatefulPartitionedCall/EfficientDet-D0/functional_1/stack_1/block_1/se_squeeze/Mean" type="ReduceMean" version="opset1">
			<data keep_dims="false"/>
			<input>
				<port id="0" precision="FP32">
					<dim>1</dim>
					<dim>144</dim>
					<dim>128</dim>
					<dim>128</dim>
				</port>
				<port id="1" precision="I64">
					<dim>2</dim>
				</port>
			</input>
			<output>
				<port id="2" precision="FP32" names="StatefulPartitionedCall/EfficientDet-D0/functional_1/stack_1/block_1/se_squeeze/Mean:0">
					<dim>1</dim>
					<dim>144</dim>
				</port>
			</output>
		</layer>
		<layer id="79" name="StatefulPartitionedCall/EfficientDet-D0/functional_1/stack_1/block_1/se_reshape/Reshape/shape" type="Const" version="opset1">
			<data element_type="i64" shape="4" offset="52632" size="32"/>
			<output>
				<port id="0" precision="I64" names="StatefulPartitionedCall/EfficientDet-D0/functional_1/stack_1/block_1/se_reshape/Reshape/shape:0">
					<dim>4</dim>
				</port>
			</output>
		</layer>
		<layer id="80" name="StatefulPartitionedCall/EfficientDet-D0/functional_1/stack_1/block_1/se_reshape/Reshape" type="Reshape" version="opset1">
			<data special_zero="false"/>
			<input>
				<port id="0" precision="FP32">
					<dim>1</dim>
					<dim>144</dim>
				</port>
				<port id="1" precision="I64">
					<dim>4</dim>
				</port>
			</input>
			<output>
				<port id="2" precision="FP32">
					<dim>1</dim>
					<dim>1</dim>
					<dim>1</dim>
					<dim>144</dim>
				</port>
			</output>
		</layer>
		<layer id="81" name="StatefulPartitionedCall/EfficientDet-D0/functional_1/stack_1/block_1/se_reshape/Reshape/Transpose/value5645582067" type="Const" version="opset1">
			<data element_type="i64" shape="4" offset="4936" size="32"/>
			<output>
				<port id="0" precision="I64">
					<dim>4</dim>
				</port>
			</output>
		</layer>
		<layer id="82" name="StatefulPartitionedCall/EfficientDet-D0/functional_1/stack_1/block_1/se_reshape/Reshape/Transpose" type="Transpose" version="opset1">
			<input>
				<port id="0" precision="FP32">
					<dim>1</dim>
					<dim>1</dim>
					<dim>1</dim>
					<dim>144</dim>
				</port>
				<port id="1" precision="I64">
					<dim>4</dim>
				</port>
			</input>
			<output>
				<port id="2" precision="FP32" names="StatefulPartitionedCall/EfficientDet-D0/functional_1/stack_1/block_1/se_reshape/Reshape:0">
					<dim>1</dim>
					<dim>144</dim>
					<dim>1</dim>
					<dim>1</dim>
				</port>
			</output>
		</layer>
		<layer id="83" name="StatefulPartitionedCall/EfficientDet-D0/functional_1/stack_1/block_1/se_reduce_conv2d/Conv2D/ReadVariableOp" type="Const" version="opset1">
			<data element_type="f32" shape="6, 144, 1, 1" offset="52664" size="3456"/>
			<output>
				<port id="0" precision="FP32" names="StatefulPartitionedCall/EfficientDet-D0/functional_1/stack_1/block_1/se_reduce_conv2d/Conv2D/ReadVariableOp:0">
					<dim>6</dim>
					<dim>144</dim>
					<dim>1</dim>
					<dim>1</dim>
				</port>
			</output>
		</layer>
		<layer id="84" name="StatefulPartitionedCall/EfficientDet-D0/functional_1/stack_1/block_1/se_reduce_conv2d/Conv2D" type="Convolution" version="opset1">
			<data strides="1, 1" dilations="1, 1" pads_begin="0, 0" pads_end="0, 0" auto_pad="same_upper"/>
			<input>
				<port id="0" precision="FP32">
					<dim>1</dim>
					<dim>144</dim>
					<dim>1</dim>
					<dim>1</dim>
				</port>
				<port id="1" precision="FP32">
					<dim>6</dim>
					<dim>144</dim>
					<dim>1</dim>
					<dim>1</dim>
				</port>
			</input>
			<output>
				<port id="2" precision="FP32" names="StatefulPartitionedCall/EfficientDet-D0/functional_1/stack_1/block_1/se_reduce_conv2d/Conv2D:0">
					<dim>1</dim>
					<dim>6</dim>
					<dim>1</dim>
					<dim>1</dim>
				</port>
			</output>
		</layer>
		<layer id="85" name="StatefulPartitionedCall/EfficientDet-D0/functional_1/stack_1/block_1/se_reduce_conv2d/BiasAdd/ReadVariableOp" type="Const" version="opset1">
			<data element_type="f32" shape="1, 6, 1, 1" offset="56120" size="24"/>
			<output>
				<port id="0" precision="FP32" names="StatefulPartitionedCall/EfficientDet-D0/functional_1/stack_1/block_1/se_reduce_conv2d/BiasAdd/ReadVariableOp:0">
					<dim>1</dim>
					<dim>6</dim>
					<dim>1</dim>
					<dim>1</dim>
				</port>
			</output>
		</layer>
		<layer id="86" name="StatefulPartitionedCall/EfficientDet-D0/functional_1/stack_1/block_1/se_reduce_conv2d/BiasAdd/Add" type="Add" version="opset1">
			<data auto_broadcast="numpy"/>
			<input>
				<port id="0" precision="FP32">
					<dim>1</dim>
					<dim>6</dim>
					<dim>1</dim>
					<dim>1</dim>
				</port>
				<port id="1" precision="FP32">
					<dim>1</dim>
					<dim>6</dim>
					<dim>1</dim>
					<dim>1</dim>
				</port>
			</input>
			<output>
				<port id="2" precision="FP32" names="StatefulPartitionedCall/EfficientDet-D0/functional_1/stack_1/block_1/se_reduce_conv2d/BiasAdd:0">
					<dim>1</dim>
					<dim>6</dim>
					<dim>1</dim>
					<dim>1</dim>
				</port>
			</output>
		</layer>
		<layer id="87" name="StatefulPartitionedCall/EfficientDet-D0/functional_1/stack_1/block_1/se_reduce_activation/mul" type="Swish" version="opset4">
			<input>
				<port id="0" precision="FP32">
					<dim>1</dim>
					<dim>6</dim>
					<dim>1</dim>
					<dim>1</dim>
				</port>
			</input>
			<output>
				<port id="1" precision="FP32" names="StatefulPartitionedCall/EfficientDet-D0/functional_1/stack_1/block_1/se_reduce_activation/mul:0">
					<dim>1</dim>
					<dim>6</dim>
					<dim>1</dim>
					<dim>1</dim>
				</port>
			</output>
		</layer>
		<layer id="88" name="StatefulPartitionedCall/EfficientDet-D0/functional_1/stack_1/block_1/se_expand_conv2d/Conv2D/ReadVariableOp" type="Const" version="opset1">
			<data element_type="f32" shape="144, 6, 1, 1" offset="56144" size="3456"/>
			<output>
				<port id="0" precision="FP32" names="StatefulPartitionedCall/EfficientDet-D0/functional_1/stack_1/block_1/se_expand_conv2d/Conv2D/ReadVariableOp:0">
					<dim>144</dim>
					<dim>6</dim>
					<dim>1</dim>
					<dim>1</dim>
				</port>
			</output>
		</layer>
		<layer id="89" name="StatefulPartitionedCall/EfficientDet-D0/functional_1/stack_1/block_1/se_expand_conv2d/Conv2D" type="Convolution" version="opset1">
			<data strides="1, 1" dilations="1, 1" pads_begin="0, 0" pads_end="0, 0" auto_pad="same_upper"/>
			<input>
				<port id="0" precision="FP32">
					<dim>1</dim>
					<dim>6</dim>
					<dim>1</dim>
					<dim>1</dim>
				</port>
				<port id="1" precision="FP32">
					<dim>144</dim>
					<dim>6</dim>
					<dim>1</dim>
					<dim>1</dim>
				</port>
			</input>
			<output>
				<port id="2" precision="FP32" names="StatefulPartitionedCall/EfficientDet-D0/functional_1/stack_1/block_1/se_expand_conv2d/Conv2D:0">
					<dim>1</dim>
					<dim>144</dim>
					<dim>1</dim>
					<dim>1</dim>
				</port>
			</output>
		</layer>
		<layer id="90" name="StatefulPartitionedCall/EfficientDet-D0/functional_1/stack_1/block_1/se_expand_conv2d/BiasAdd/ReadVariableOp" type="Const" version="opset1">
			<data element_type="f32" shape="1, 144, 1, 1" offset="59600" size="576"/>
			<output>
				<port id="0" precision="FP32" names="StatefulPartitionedCall/EfficientDet-D0/functional_1/stack_1/block_1/se_expand_conv2d/BiasAdd/ReadVariableOp:0">
					<dim>1</dim>
					<dim>144</dim>
					<dim>1</dim>
					<dim>1</dim>
				</port>
			</output>
		</layer>
		<layer id="91" name="StatefulPartitionedCall/EfficientDet-D0/functional_1/stack_1/block_1/se_expand_conv2d/BiasAdd/Add" type="Add" version="opset1">
			<data auto_broadcast="numpy"/>
			<input>
				<port id="0" precision="FP32">
					<dim>1</dim>
					<dim>144</dim>
					<dim>1</dim>
					<dim>1</dim>
				</port>
				<port id="1" precision="FP32">
					<dim>1</dim>
					<dim>144</dim>
					<dim>1</dim>
					<dim>1</dim>
				</port>
			</input>
			<output>
				<port id="2" precision="FP32" names="StatefulPartitionedCall/EfficientDet-D0/functional_1/stack_1/block_1/se_expand_conv2d/BiasAdd:0">
					<dim>1</dim>
					<dim>144</dim>
					<dim>1</dim>
					<dim>1</dim>
				</port>
			</output>
		</layer>
		<layer id="92" name="StatefulPartitionedCall/EfficientDet-D0/functional_1/stack_1/block_1/se_expand_activation/Sigmoid" type="Sigmoid" version="opset1">
			<input>
				<port id="0" precision="FP32">
					<dim>1</dim>
					<dim>144</dim>
					<dim>1</dim>
					<dim>1</dim>
				</port>
			</input>
			<output>
				<port id="1" precision="FP32" names="StatefulPartitionedCall/EfficientDet-D0/functional_1/stack_1/block_1/se_expand_activation/Sigmoid:0">
					<dim>1</dim>
					<dim>144</dim>
					<dim>1</dim>
					<dim>1</dim>
				</port>
			</output>
		</layer>
		<layer id="93" name="StatefulPartitionedCall/EfficientDet-D0/functional_1/stack_1/block_1/se_excite/mul" type="Multiply" version="opset1">
			<data auto_broadcast="numpy"/>
			<input>
				<port id="0" precision="FP32">
					<dim>1</dim>
					<dim>144</dim>
					<dim>128</dim>
					<dim>128</dim>
				</port>
				<port id="1" precision="FP32">
					<dim>1</dim>
					<dim>144</dim>
					<dim>1</dim>
					<dim>1</dim>
				</port>
			</input>
			<output>
				<port id="2" precision="FP32" names="StatefulPartitionedCall/EfficientDet-D0/functional_1/stack_1/block_1/se_excite/mul:0">
					<dim>1</dim>
					<dim>144</dim>
					<dim>128</dim>
					<dim>128</dim>
				</port>
			</output>
		</layer>
		<layer id="94" name="StatefulPartitionedCall/EfficientDet-D0/functional_1/stack_1/block_1/project_bn/FusedBatchNormV3/mean/Fused_Mul__copy" type="Const" version="opset1">
			<data element_type="f32" shape="24, 144, 1, 1" offset="60176" size="13824"/>
			<output>
				<port id="0" precision="FP32" names="StatefulPartitionedCall/EfficientDet-D0/functional_1/stack_1/block_1/project_conv2d/Conv2D/ReadVariableOp:0">
					<dim>24</dim>
					<dim>144</dim>
					<dim>1</dim>
					<dim>1</dim>
				</port>
			</output>
		</layer>
		<layer id="95" name="StatefulPartitionedCall/EfficientDet-D0/functional_1/stack_1/block_1/project_conv2d/Conv2D" type="Convolution" version="opset1">
			<data strides="1, 1" dilations="1, 1" pads_begin="0, 0" pads_end="0, 0" auto_pad="same_upper"/>
			<input>
				<port id="0" precision="FP32">
					<dim>1</dim>
					<dim>144</dim>
					<dim>128</dim>
					<dim>128</dim>
				</port>
				<port id="1" precision="FP32">
					<dim>24</dim>
					<dim>144</dim>
					<dim>1</dim>
					<dim>1</dim>
				</port>
			</input>
			<output>
				<port id="2" precision="FP32">
					<dim>1</dim>
					<dim>24</dim>
					<dim>128</dim>
					<dim>128</dim>
				</port>
			</output>
		</layer>
		<layer id="96" name="data_add_4658246587" type="Const" version="opset1">
			<data element_type="f32" shape="1, 24, 1, 1" offset="74000" size="96"/>
			<output>
				<port id="0" precision="FP32">
					<dim>1</dim>
					<dim>24</dim>
					<dim>1</dim>
					<dim>1</dim>
				</port>
			</output>
		</layer>
		<layer id="97" name="StatefulPartitionedCall/EfficientDet-D0/functional_1/stack_1/block_1/project_bn/FusedBatchNormV3/variance/Fused_Add_" type="Add" version="opset1">
			<data auto_broadcast="numpy"/>
			<input>
				<port id="0" precision="FP32">
					<dim>1</dim>
					<dim>24</dim>
					<dim>128</dim>
					<dim>128</dim>
				</port>
				<port id="1" precision="FP32">
					<dim>1</dim>
					<dim>24</dim>
					<dim>1</dim>
					<dim>1</dim>
				</port>
			</input>
			<output>
				<port id="2" precision="FP32" names="StatefulPartitionedCall/EfficientDet-D0/functional_1/stack_1/block_1/drop/Identity:0,StatefulPartitionedCall/EfficientDet-D0/functional_1/stack_1/block_1/id/Identity:0,StatefulPartitionedCall/EfficientDet-D0/functional_1/stack_1/block_1/project_bn/FusedBatchNormV3:0">
					<dim>1</dim>
					<dim>24</dim>
					<dim>128</dim>
					<dim>128</dim>
				</port>
			</output>
		</layer>
		<layer id="98" name="StatefulPartitionedCall/EfficientDet-D0/functional_1/stack_1/block_1/add/add" type="Add" version="opset1">
			<data auto_broadcast="numpy"/>
			<input>
				<port id="0" precision="FP32">
					<dim>1</dim>
					<dim>24</dim>
					<dim>128</dim>
					<dim>128</dim>
				</port>
				<port id="1" precision="FP32">
					<dim>1</dim>
					<dim>24</dim>
					<dim>128</dim>
					<dim>128</dim>
				</port>
			</input>
			<output>
				<port id="2" precision="FP32" names="StatefulPartitionedCall/EfficientDet-D0/functional_1/stack_1/block_1/add/add:0">
					<dim>1</dim>
					<dim>24</dim>
					<dim>128</dim>
					<dim>128</dim>
				</port>
			</output>
		</layer>
		<layer id="99" name="StatefulPartitionedCall/EfficientDet-D0/functional_1/stack_2/block_0/expand_bn/FusedBatchNormV3/mean/Fused_Mul__copy" type="Const" version="opset1">
			<data element_type="f32" shape="144, 24, 1, 1" offset="74096" size="13824"/>
			<output>
				<port id="0" precision="FP32" names="StatefulPartitionedCall/EfficientDet-D0/functional_1/stack_2/block_0/expand_conv2d/Conv2D/ReadVariableOp:0">
					<dim>144</dim>
					<dim>24</dim>
					<dim>1</dim>
					<dim>1</dim>
				</port>
			</output>
		</layer>
		<layer id="100" name="StatefulPartitionedCall/EfficientDet-D0/functional_1/stack_2/block_0/expand_conv2d/Conv2D" type="Convolution" version="opset1">
			<data strides="1, 1" dilations="1, 1" pads_begin="0, 0" pads_end="0, 0" auto_pad="same_upper"/>
			<input>
				<port id="0" precision="FP32">
					<dim>1</dim>
					<dim>24</dim>
					<dim>128</dim>
					<dim>128</dim>
				</port>
				<port id="1" precision="FP32">
					<dim>144</dim>
					<dim>24</dim>
					<dim>1</dim>
					<dim>1</dim>
				</port>
			</input>
			<output>
				<port id="2" precision="FP32">
					<dim>1</dim>
					<dim>144</dim>
					<dim>128</dim>
					<dim>128</dim>
				</port>
			</output>
		</layer>
		<layer id="101" name="data_add_4659046595" type="Const" version="opset1">
			<data element_type="f32" shape="1, 144, 1, 1" offset="87920" size="576"/>
			<output>
				<port id="0" precision="FP32">
					<dim>1</dim>
					<dim>144</dim>
					<dim>1</dim>
					<dim>1</dim>
				</port>
			</output>
		</layer>
		<layer id="102" name="StatefulPartitionedCall/EfficientDet-D0/functional_1/stack_2/block_0/expand_bn/FusedBatchNormV3/variance/Fused_Add_" type="Add" version="opset1">
			<data auto_broadcast="numpy"/>
			<input>
				<port id="0" precision="FP32">
					<dim>1</dim>
					<dim>144</dim>
					<dim>128</dim>
					<dim>128</dim>
				</port>
				<port id="1" precision="FP32">
					<dim>1</dim>
					<dim>144</dim>
					<dim>1</dim>
					<dim>1</dim>
				</port>
			</input>
			<output>
				<port id="2" precision="FP32" names="StatefulPartitionedCall/EfficientDet-D0/functional_1/stack_2/block_0/expand_bn/FusedBatchNormV3:0">
					<dim>1</dim>
					<dim>144</dim>
					<dim>128</dim>
					<dim>128</dim>
				</port>
			</output>
		</layer>
		<layer id="103" name="StatefulPartitionedCall/EfficientDet-D0/functional_1/stack_2/block_0/expand_activation/mul" type="Swish" version="opset4">
			<input>
				<port id="0" precision="FP32">
					<dim>1</dim>
					<dim>144</dim>
					<dim>128</dim>
					<dim>128</dim>
				</port>
			</input>
			<output>
				<port id="1" precision="FP32" names="StatefulPartitionedCall/EfficientDet-D0/functional_1/stack_2/block_0/expand_activation/mul:0">
					<dim>1</dim>
					<dim>144</dim>
					<dim>128</dim>
					<dim>128</dim>
				</port>
			</output>
		</layer>
		<layer id="104" name="StatefulPartitionedCall/EfficientDet-D0/functional_1/stack_2/block_0/depthwise_bn/FusedBatchNormV3/mean/Fused_Mul__copy" type="Const" version="opset1">
			<data element_type="f32" shape="144, 1, 1, 5, 5" offset="88496" size="14400"/>
			<output>
				<port id="0" precision="FP32" names="StatefulPartitionedCall/EfficientDet-D0/functional_1/stack_2/block_0/depthwise_conv2d/depthwise/ReadVariableOp:0">
					<dim>144</dim>
					<dim>1</dim>
					<dim>1</dim>
					<dim>5</dim>
					<dim>5</dim>
				</port>
			</output>
		</layer>
		<layer id="105" name="StatefulPartitionedCall/EfficientDet-D0/functional_1/stack_2/block_0/depthwise_conv2d/depthwise" type="GroupConvolution" version="opset1">
			<data strides="2, 2" pads_begin="1, 1" pads_end="2, 2" dilations="1, 1" auto_pad="same_upper"/>
			<input>
				<port id="0" precision="FP32">
					<dim>1</dim>
					<dim>144</dim>
					<dim>128</dim>
					<dim>128</dim>
				</port>
				<port id="1" precision="FP32">
					<dim>144</dim>
					<dim>1</dim>
					<dim>1</dim>
					<dim>5</dim>
					<dim>5</dim>
				</port>
			</input>
			<output>
				<port id="2" precision="FP32">
					<dim>1</dim>
					<dim>144</dim>
					<dim>64</dim>
					<dim>64</dim>
				</port>
			</output>
		</layer>
		<layer id="106" name="data_add_4659846603" type="Const" version="opset1">
			<data element_type="f32" shape="1, 144, 1, 1" offset="102896" size="576"/>
			<output>
				<port id="0" precision="FP32">
					<dim>1</dim>
					<dim>144</dim>
					<dim>1</dim>
					<dim>1</dim>
				</port>
			</output>
		</layer>
		<layer id="107" name="StatefulPartitionedCall/EfficientDet-D0/functional_1/stack_2/block_0/depthwise_bn/FusedBatchNormV3/variance/Fused_Add_" type="Add" version="opset1">
			<data auto_broadcast="numpy"/>
			<input>
				<port id="0" precision="FP32">
					<dim>1</dim>
					<dim>144</dim>
					<dim>64</dim>
					<dim>64</dim>
				</port>
				<port id="1" precision="FP32">
					<dim>1</dim>
					<dim>144</dim>
					<dim>1</dim>
					<dim>1</dim>
				</port>
			</input>
			<output>
				<port id="2" precision="FP32" names="StatefulPartitionedCall/EfficientDet-D0/functional_1/stack_2/block_0/depthwise_bn/FusedBatchNormV3:0">
					<dim>1</dim>
					<dim>144</dim>
					<dim>64</dim>
					<dim>64</dim>
				</port>
			</output>
		</layer>
		<layer id="108" name="StatefulPartitionedCall/EfficientDet-D0/functional_1/stack_2/block_0/depthwise_activation/mul" type="Swish" version="opset4">
			<input>
				<port id="0" precision="FP32">
					<dim>1</dim>
					<dim>144</dim>
					<dim>64</dim>
					<dim>64</dim>
				</port>
			</input>
			<output>
				<port id="1" precision="FP32">
					<dim>1</dim>
					<dim>144</dim>
					<dim>64</dim>
					<dim>64</dim>
				</port>
			</output>
		</layer>
		<layer id="109" name="StatefulPartitionedCall/EfficientDet-D0/functional_1/stack_2/block_0/se_squeeze/MeanGather6514684104" type="Const" version="opset1">
			<data element_type="i64" shape="2" offset="4888" size="16"/>
			<output>
				<port id="0" precision="I64">
					<dim>2</dim>
				</port>
			</output>
		</layer>
		<layer id="110" name="StatefulPartitionedCall/EfficientDet-D0/functional_1/stack_2/block_0/se_squeeze/Mean" type="ReduceMean" version="opset1">
			<data keep_dims="false"/>
			<input>
				<port id="0" precision="FP32">
					<dim>1</dim>
					<dim>144</dim>
					<dim>64</dim>
					<dim>64</dim>
				</port>
				<port id="1" precision="I64">
					<dim>2</dim>
				</port>
			</input>
			<output>
				<port id="2" precision="FP32" names="StatefulPartitionedCall/EfficientDet-D0/functional_1/stack_2/block_0/se_squeeze/Mean:0">
					<dim>1</dim>
					<dim>144</dim>
				</port>
			</output>
		</layer>
		<layer id="111" name="StatefulPartitionedCall/EfficientDet-D0/functional_1/stack_2/block_0/se_reshape/Reshape/shape" type="Const" version="opset1">
			<data element_type="i64" shape="4" offset="52632" size="32"/>
			<output>
				<port id="0" precision="I64" names="StatefulPartitionedCall/EfficientDet-D0/functional_1/stack_2/block_0/se_reshape/Reshape/shape:0">
					<dim>4</dim>
				</port>
			</output>
		</layer>
		<layer id="112" name="StatefulPartitionedCall/EfficientDet-D0/functional_1/stack_2/block_0/se_reshape/Reshape" type="Reshape" version="opset1">
			<data special_zero="false"/>
			<input>
				<port id="0" precision="FP32">
					<dim>1</dim>
					<dim>144</dim>
				</port>
				<port id="1" precision="I64">
					<dim>4</dim>
				</port>
			</input>
			<output>
				<port id="2" precision="FP32">
					<dim>1</dim>
					<dim>1</dim>
					<dim>1</dim>
					<dim>144</dim>
				</port>
			</output>
		</layer>
		<layer id="113" name="StatefulPartitionedCall/EfficientDet-D0/functional_1/stack_2/block_0/se_reshape/Reshape/Transpose/value5645983213" type="Const" version="opset1">
			<data element_type="i64" shape="4" offset="4936" size="32"/>
			<output>
				<port id="0" precision="I64">
					<dim>4</dim>
				</port>
			</output>
		</layer>
		<layer id="114" name="StatefulPartitionedCall/EfficientDet-D0/functional_1/stack_2/block_0/se_reshape/Reshape/Transpose" type="Transpose" version="opset1">
			<input>
				<port id="0" precision="FP32">
					<dim>1</dim>
					<dim>1</dim>
					<dim>1</dim>
					<dim>144</dim>
				</port>
				<port id="1" precision="I64">
					<dim>4</dim>
				</port>
			</input>
			<output>
				<port id="2" precision="FP32" names="StatefulPartitionedCall/EfficientDet-D0/functional_1/stack_2/block_0/se_reshape/Reshape:0">
					<dim>1</dim>
					<dim>144</dim>
					<dim>1</dim>
					<dim>1</dim>
				</port>
			</output>
		</layer>
		<layer id="115" name="StatefulPartitionedCall/EfficientDet-D0/functional_1/stack_2/block_0/se_reduce_conv2d/Conv2D/ReadVariableOp" type="Const" version="opset1">
			<data element_type="f32" shape="6, 144, 1, 1" offset="103472" size="3456"/>
			<output>
				<port id="0" precision="FP32" names="StatefulPartitionedCall/EfficientDet-D0/functional_1/stack_2/block_0/se_reduce_conv2d/Conv2D/ReadVariableOp:0">
					<dim>6</dim>
					<dim>144</dim>
					<dim>1</dim>
					<dim>1</dim>
				</port>
			</output>
		</layer>
		<layer id="116" name="StatefulPartitionedCall/EfficientDet-D0/functional_1/stack_2/block_0/se_reduce_conv2d/Conv2D" type="Convolution" version="opset1">
			<data strides="1, 1" dilations="1, 1" pads_begin="0, 0" pads_end="0, 0" auto_pad="same_upper"/>
			<input>
				<port id="0" precision="FP32">
					<dim>1</dim>
					<dim>144</dim>
					<dim>1</dim>
					<dim>1</dim>
				</port>
				<port id="1" precision="FP32">
					<dim>6</dim>
					<dim>144</dim>
					<dim>1</dim>
					<dim>1</dim>
				</port>
			</input>
			<output>
				<port id="2" precision="FP32" names="StatefulPartitionedCall/EfficientDet-D0/functional_1/stack_2/block_0/se_reduce_conv2d/Conv2D:0">
					<dim>1</dim>
					<dim>6</dim>
					<dim>1</dim>
					<dim>1</dim>
				</port>
			</output>
		</layer>
		<layer id="117" name="StatefulPartitionedCall/EfficientDet-D0/functional_1/stack_2/block_0/se_reduce_conv2d/BiasAdd/ReadVariableOp" type="Const" version="opset1">
			<data element_type="f32" shape="1, 6, 1, 1" offset="106928" size="24"/>
			<output>
				<port id="0" precision="FP32" names="StatefulPartitionedCall/EfficientDet-D0/functional_1/stack_2/block_0/se_reduce_conv2d/BiasAdd/ReadVariableOp:0">
					<dim>1</dim>
					<dim>6</dim>
					<dim>1</dim>
					<dim>1</dim>
				</port>
			</output>
		</layer>
		<layer id="118" name="StatefulPartitionedCall/EfficientDet-D0/functional_1/stack_2/block_0/se_reduce_conv2d/BiasAdd/Add" type="Add" version="opset1">
			<data auto_broadcast="numpy"/>
			<input>
				<port id="0" precision="FP32">
					<dim>1</dim>
					<dim>6</dim>
					<dim>1</dim>
					<dim>1</dim>
				</port>
				<port id="1" precision="FP32">
					<dim>1</dim>
					<dim>6</dim>
					<dim>1</dim>
					<dim>1</dim>
				</port>
			</input>
			<output>
				<port id="2" precision="FP32" names="StatefulPartitionedCall/EfficientDet-D0/functional_1/stack_2/block_0/se_reduce_conv2d/BiasAdd:0">
					<dim>1</dim>
					<dim>6</dim>
					<dim>1</dim>
					<dim>1</dim>
				</port>
			</output>
		</layer>
		<layer id="119" name="StatefulPartitionedCall/EfficientDet-D0/functional_1/stack_2/block_0/se_reduce_activation/mul" type="Swish" version="opset4">
			<input>
				<port id="0" precision="FP32">
					<dim>1</dim>
					<dim>6</dim>
					<dim>1</dim>
					<dim>1</dim>
				</port>
			</input>
			<output>
				<port id="1" precision="FP32" names="StatefulPartitionedCall/EfficientDet-D0/functional_1/stack_2/block_0/se_reduce_activation/mul:0">
					<dim>1</dim>
					<dim>6</dim>
					<dim>1</dim>
					<dim>1</dim>
				</port>
			</output>
		</layer>
		<layer id="120" name="StatefulPartitionedCall/EfficientDet-D0/functional_1/stack_2/block_0/se_expand_conv2d/Conv2D/ReadVariableOp" type="Const" version="opset1">
			<data element_type="f32" shape="144, 6, 1, 1" offset="106952" size="3456"/>
			<output>
				<port id="0" precision="FP32" names="StatefulPartitionedCall/EfficientDet-D0/functional_1/stack_2/block_0/se_expand_conv2d/Conv2D/ReadVariableOp:0">
					<dim>144</dim>
					<dim>6</dim>
					<dim>1</dim>
					<dim>1</dim>
				</port>
			</output>
		</layer>
		<layer id="121" name="StatefulPartitionedCall/EfficientDet-D0/functional_1/stack_2/block_0/se_expand_conv2d/Conv2D" type="Convolution" version="opset1">
			<data strides="1, 1" dilations="1, 1" pads_begin="0, 0" pads_end="0, 0" auto_pad="same_upper"/>
			<input>
				<port id="0" precision="FP32">
					<dim>1</dim>
					<dim>6</dim>
					<dim>1</dim>
					<dim>1</dim>
				</port>
				<port id="1" precision="FP32">
					<dim>144</dim>
					<dim>6</dim>
					<dim>1</dim>
					<dim>1</dim>
				</port>
			</input>
			<output>
				<port id="2" precision="FP32" names="StatefulPartitionedCall/EfficientDet-D0/functional_1/stack_2/block_0/se_expand_conv2d/Conv2D:0">
					<dim>1</dim>
					<dim>144</dim>
					<dim>1</dim>
					<dim>1</dim>
				</port>
			</output>
		</layer>
		<layer id="122" name="StatefulPartitionedCall/EfficientDet-D0/functional_1/stack_2/block_0/se_expand_conv2d/BiasAdd/ReadVariableOp" type="Const" version="opset1">
			<data element_type="f32" shape="1, 144, 1, 1" offset="110408" size="576"/>
			<output>
				<port id="0" precision="FP32" names="StatefulPartitionedCall/EfficientDet-D0/functional_1/stack_2/block_0/se_expand_conv2d/BiasAdd/ReadVariableOp:0">
					<dim>1</dim>
					<dim>144</dim>
					<dim>1</dim>
					<dim>1</dim>
				</port>
			</output>
		</layer>
		<layer id="123" name="StatefulPartitionedCall/EfficientDet-D0/functional_1/stack_2/block_0/se_expand_conv2d/BiasAdd/Add" type="Add" version="opset1">
			<data auto_broadcast="numpy"/>
			<input>
				<port id="0" precision="FP32">
					<dim>1</dim>
					<dim>144</dim>
					<dim>1</dim>
					<dim>1</dim>
				</port>
				<port id="1" precision="FP32">
					<dim>1</dim>
					<dim>144</dim>
					<dim>1</dim>
					<dim>1</dim>
				</port>
			</input>
			<output>
				<port id="2" precision="FP32" names="StatefulPartitionedCall/EfficientDet-D0/functional_1/stack_2/block_0/se_expand_conv2d/BiasAdd:0">
					<dim>1</dim>
					<dim>144</dim>
					<dim>1</dim>
					<dim>1</dim>
				</port>
			</output>
		</layer>
		<layer id="124" name="StatefulPartitionedCall/EfficientDet-D0/functional_1/stack_2/block_0/se_expand_activation/Sigmoid" type="Sigmoid" version="opset1">
			<input>
				<port id="0" precision="FP32">
					<dim>1</dim>
					<dim>144</dim>
					<dim>1</dim>
					<dim>1</dim>
				</port>
			</input>
			<output>
				<port id="1" precision="FP32" names="StatefulPartitionedCall/EfficientDet-D0/functional_1/stack_2/block_0/se_expand_activation/Sigmoid:0">
					<dim>1</dim>
					<dim>144</dim>
					<dim>1</dim>
					<dim>1</dim>
				</port>
			</output>
		</layer>
		<layer id="125" name="StatefulPartitionedCall/EfficientDet-D0/functional_1/stack_2/block_0/se_excite/mul" type="Multiply" version="opset1">
			<data auto_broadcast="numpy"/>
			<input>
				<port id="0" precision="FP32">
					<dim>1</dim>
					<dim>144</dim>
					<dim>64</dim>
					<dim>64</dim>
				</port>
				<port id="1" precision="FP32">
					<dim>1</dim>
					<dim>144</dim>
					<dim>1</dim>
					<dim>1</dim>
				</port>
			</input>
			<output>
				<port id="2" precision="FP32" names="StatefulPartitionedCall/EfficientDet-D0/functional_1/stack_2/block_0/se_excite/mul:0">
					<dim>1</dim>
					<dim>144</dim>
					<dim>64</dim>
					<dim>64</dim>
				</port>
			</output>
		</layer>
		<layer id="126" name="StatefulPartitionedCall/EfficientDet-D0/functional_1/stack_2/block_0/project_bn/FusedBatchNormV3/mean/Fused_Mul__copy" type="Const" version="opset1">
			<data element_type="f32" shape="40, 144, 1, 1" offset="110984" size="23040"/>
			<output>
				<port id="0" precision="FP32" names="StatefulPartitionedCall/EfficientDet-D0/functional_1/stack_2/block_0/project_conv2d/Conv2D/ReadVariableOp:0">
					<dim>40</dim>
					<dim>144</dim>
					<dim>1</dim>
					<dim>1</dim>
				</port>
			</output>
		</layer>
		<layer id="127" name="StatefulPartitionedCall/EfficientDet-D0/functional_1/stack_2/block_0/project_conv2d/Conv2D" type="Convolution" version="opset1">
			<data strides="1, 1" dilations="1, 1" pads_begin="0, 0" pads_end="0, 0" auto_pad="same_upper"/>
			<input>
				<port id="0" precision="FP32">
					<dim>1</dim>
					<dim>144</dim>
					<dim>64</dim>
					<dim>64</dim>
				</port>
				<port id="1" precision="FP32">
					<dim>40</dim>
					<dim>144</dim>
					<dim>1</dim>
					<dim>1</dim>
				</port>
			</input>
			<output>
				<port id="2" precision="FP32">
					<dim>1</dim>
					<dim>40</dim>
					<dim>64</dim>
					<dim>64</dim>
				</port>
			</output>
		</layer>
		<layer id="128" name="data_add_4660646611" type="Const" version="opset1">
			<data element_type="f32" shape="1, 40, 1, 1" offset="134024" size="160"/>
			<output>
				<port id="0" precision="FP32">
					<dim>1</dim>
					<dim>40</dim>
					<dim>1</dim>
					<dim>1</dim>
				</port>
			</output>
		</layer>
		<layer id="129" name="StatefulPartitionedCall/EfficientDet-D0/functional_1/stack_2/block_0/project_bn/FusedBatchNormV3/variance/Fused_Add_" type="Add" version="opset1">
			<data auto_broadcast="numpy"/>
			<input>
				<port id="0" precision="FP32">
					<dim>1</dim>
					<dim>40</dim>
					<dim>64</dim>
					<dim>64</dim>
				</port>
				<port id="1" precision="FP32">
					<dim>1</dim>
					<dim>40</dim>
					<dim>1</dim>
					<dim>1</dim>
				</port>
			</input>
			<output>
				<port id="2" precision="FP32" names="StatefulPartitionedCall/EfficientDet-D0/functional_1/stack_2/block_0/id/Identity:0,StatefulPartitionedCall/EfficientDet-D0/functional_1/stack_2/block_0/project_bn/FusedBatchNormV3:0">
					<dim>1</dim>
					<dim>40</dim>
					<dim>64</dim>
					<dim>64</dim>
				</port>
			</output>
		</layer>
		<layer id="130" name="StatefulPartitionedCall/EfficientDet-D0/functional_1/stack_2/block_1/expand_bn/FusedBatchNormV3/mean/Fused_Mul__copy" type="Const" version="opset1">
			<data element_type="f32" shape="240, 40, 1, 1" offset="134184" size="38400"/>
			<output>
				<port id="0" precision="FP32" names="StatefulPartitionedCall/EfficientDet-D0/functional_1/stack_2/block_1/expand_conv2d/Conv2D/ReadVariableOp:0">
					<dim>240</dim>
					<dim>40</dim>
					<dim>1</dim>
					<dim>1</dim>
				</port>
			</output>
		</layer>
		<layer id="131" name="StatefulPartitionedCall/EfficientDet-D0/functional_1/stack_2/block_1/expand_conv2d/Conv2D" type="Convolution" version="opset1">
			<data strides="1, 1" dilations="1, 1" pads_begin="0, 0" pads_end="0, 0" auto_pad="same_upper"/>
			<input>
				<port id="0" precision="FP32">
					<dim>1</dim>
					<dim>40</dim>
					<dim>64</dim>
					<dim>64</dim>
				</port>
				<port id="1" precision="FP32">
					<dim>240</dim>
					<dim>40</dim>
					<dim>1</dim>
					<dim>1</dim>
				</port>
			</input>
			<output>
				<port id="2" precision="FP32">
					<dim>1</dim>
					<dim>240</dim>
					<dim>64</dim>
					<dim>64</dim>
				</port>
			</output>
		</layer>
		<layer id="132" name="data_add_4661446619" type="Const" version="opset1">
			<data element_type="f32" shape="1, 240, 1, 1" offset="172584" size="960"/>
			<output>
				<port id="0" precision="FP32">
					<dim>1</dim>
					<dim>240</dim>
					<dim>1</dim>
					<dim>1</dim>
				</port>
			</output>
		</layer>
		<layer id="133" name="StatefulPartitionedCall/EfficientDet-D0/functional_1/stack_2/block_1/expand_bn/FusedBatchNormV3/variance/Fused_Add_" type="Add" version="opset1">
			<data auto_broadcast="numpy"/>
			<input>
				<port id="0" precision="FP32">
					<dim>1</dim>
					<dim>240</dim>
					<dim>64</dim>
					<dim>64</dim>
				</port>
				<port id="1" precision="FP32">
					<dim>1</dim>
					<dim>240</dim>
					<dim>1</dim>
					<dim>1</dim>
				</port>
			</input>
			<output>
				<port id="2" precision="FP32" names="StatefulPartitionedCall/EfficientDet-D0/functional_1/stack_2/block_1/expand_bn/FusedBatchNormV3:0">
					<dim>1</dim>
					<dim>240</dim>
					<dim>64</dim>
					<dim>64</dim>
				</port>
			</output>
		</layer>
		<layer id="134" name="StatefulPartitionedCall/EfficientDet-D0/functional_1/stack_2/block_1/expand_activation/mul" type="Swish" version="opset4">
			<input>
				<port id="0" precision="FP32">
					<dim>1</dim>
					<dim>240</dim>
					<dim>64</dim>
					<dim>64</dim>
				</port>
			</input>
			<output>
				<port id="1" precision="FP32" names="StatefulPartitionedCall/EfficientDet-D0/functional_1/stack_2/block_1/expand_activation/mul:0">
					<dim>1</dim>
					<dim>240</dim>
					<dim>64</dim>
					<dim>64</dim>
				</port>
			</output>
		</layer>
		<layer id="135" name="StatefulPartitionedCall/EfficientDet-D0/functional_1/stack_2/block_1/depthwise_bn/FusedBatchNormV3/mean/Fused_Mul__copy" type="Const" version="opset1">
			<data element_type="f32" shape="240, 1, 1, 5, 5" offset="173544" size="24000"/>
			<output>
				<port id="0" precision="FP32" names="StatefulPartitionedCall/EfficientDet-D0/functional_1/stack_2/block_1/depthwise_conv2d/depthwise/ReadVariableOp:0">
					<dim>240</dim>
					<dim>1</dim>
					<dim>1</dim>
					<dim>5</dim>
					<dim>5</dim>
				</port>
			</output>
		</layer>
		<layer id="136" name="StatefulPartitionedCall/EfficientDet-D0/functional_1/stack_2/block_1/depthwise_conv2d/depthwise" type="GroupConvolution" version="opset1">
			<data strides="1, 1" pads_begin="2, 2" pads_end="2, 2" dilations="1, 1" auto_pad="same_upper"/>
			<input>
				<port id="0" precision="FP32">
					<dim>1</dim>
					<dim>240</dim>
					<dim>64</dim>
					<dim>64</dim>
				</port>
				<port id="1" precision="FP32">
					<dim>240</dim>
					<dim>1</dim>
					<dim>1</dim>
					<dim>5</dim>
					<dim>5</dim>
				</port>
			</input>
			<output>
				<port id="2" precision="FP32">
					<dim>1</dim>
					<dim>240</dim>
					<dim>64</dim>
					<dim>64</dim>
				</port>
			</output>
		</layer>
		<layer id="137" name="data_add_4662246627" type="Const" version="opset1">
			<data element_type="f32" shape="1, 240, 1, 1" offset="197544" size="960"/>
			<output>
				<port id="0" precision="FP32">
					<dim>1</dim>
					<dim>240</dim>
					<dim>1</dim>
					<dim>1</dim>
				</port>
			</output>
		</layer>
		<layer id="138" name="StatefulPartitionedCall/EfficientDet-D0/functional_1/stack_2/block_1/depthwise_bn/FusedBatchNormV3/variance/Fused_Add_" type="Add" version="opset1">
			<data auto_broadcast="numpy"/>
			<input>
				<port id="0" precision="FP32">
					<dim>1</dim>
					<dim>240</dim>
					<dim>64</dim>
					<dim>64</dim>
				</port>
				<port id="1" precision="FP32">
					<dim>1</dim>
					<dim>240</dim>
					<dim>1</dim>
					<dim>1</dim>
				</port>
			</input>
			<output>
				<port id="2" precision="FP32" names="StatefulPartitionedCall/EfficientDet-D0/functional_1/stack_2/block_1/depthwise_bn/FusedBatchNormV3:0">
					<dim>1</dim>
					<dim>240</dim>
					<dim>64</dim>
					<dim>64</dim>
				</port>
			</output>
		</layer>
		<layer id="139" name="StatefulPartitionedCall/EfficientDet-D0/functional_1/stack_2/block_1/depthwise_activation/mul" type="Swish" version="opset4">
			<input>
				<port id="0" precision="FP32">
					<dim>1</dim>
					<dim>240</dim>
					<dim>64</dim>
					<dim>64</dim>
				</port>
			</input>
			<output>
				<port id="1" precision="FP32">
					<dim>1</dim>
					<dim>240</dim>
					<dim>64</dim>
					<dim>64</dim>
				</port>
			</output>
		</layer>
		<layer id="140" name="StatefulPartitionedCall/EfficientDet-D0/functional_1/stack_2/block_1/se_squeeze/MeanGather6511082967" type="Const" version="opset1">
			<data element_type="i64" shape="2" offset="4888" size="16"/>
			<output>
				<port id="0" precision="I64">
					<dim>2</dim>
				</port>
			</output>
		</layer>
		<layer id="141" name="StatefulPartitionedCall/EfficientDet-D0/functional_1/stack_2/block_1/se_squeeze/Mean" type="ReduceMean" version="opset1">
			<data keep_dims="false"/>
			<input>
				<port id="0" precision="FP32">
					<dim>1</dim>
					<dim>240</dim>
					<dim>64</dim>
					<dim>64</dim>
				</port>
				<port id="1" precision="I64">
					<dim>2</dim>
				</port>
			</input>
			<output>
				<port id="2" precision="FP32" names="StatefulPartitionedCall/EfficientDet-D0/functional_1/stack_2/block_1/se_squeeze/Mean:0">
					<dim>1</dim>
					<dim>240</dim>
				</port>
			</output>
		</layer>
		<layer id="142" name="StatefulPartitionedCall/EfficientDet-D0/functional_1/stack_2/block_1/se_reshape/Reshape/shape" type="Const" version="opset1">
			<data element_type="i64" shape="4" offset="198504" size="32"/>
			<output>
				<port id="0" precision="I64" names="StatefulPartitionedCall/EfficientDet-D0/functional_1/stack_2/block_1/se_reshape/Reshape/shape:0">
					<dim>4</dim>
				</port>
			</output>
		</layer>
		<layer id="143" name="StatefulPartitionedCall/EfficientDet-D0/functional_1/stack_2/block_1/se_reshape/Reshape" type="Reshape" version="opset1">
			<data special_zero="false"/>
			<input>
				<port id="0" precision="FP32">
					<dim>1</dim>
					<dim>240</dim>
				</port>
				<port id="1" precision="I64">
					<dim>4</dim>
				</port>
			</input>
			<output>
				<port id="2" precision="FP32">
					<dim>1</dim>
					<dim>1</dim>
					<dim>1</dim>
					<dim>240</dim>
				</port>
			</output>
		</layer>
		<layer id="144" name="StatefulPartitionedCall/EfficientDet-D0/functional_1/stack_2/block_1/se_reshape/Reshape/Transpose/value5646382568" type="Const" version="opset1">
			<data element_type="i64" shape="4" offset="4936" size="32"/>
			<output>
				<port id="0" precision="I64">
					<dim>4</dim>
				</port>
			</output>
		</layer>
		<layer id="145" name="StatefulPartitionedCall/EfficientDet-D0/functional_1/stack_2/block_1/se_reshape/Reshape/Transpose" type="Transpose" version="opset1">
			<input>
				<port id="0" precision="FP32">
					<dim>1</dim>
					<dim>1</dim>
					<dim>1</dim>
					<dim>240</dim>
				</port>
				<port id="1" precision="I64">
					<dim>4</dim>
				</port>
			</input>
			<output>
				<port id="2" precision="FP32" names="StatefulPartitionedCall/EfficientDet-D0/functional_1/stack_2/block_1/se_reshape/Reshape:0">
					<dim>1</dim>
					<dim>240</dim>
					<dim>1</dim>
					<dim>1</dim>
				</port>
			</output>
		</layer>
		<layer id="146" name="StatefulPartitionedCall/EfficientDet-D0/functional_1/stack_2/block_1/se_reduce_conv2d/Conv2D/ReadVariableOp" type="Const" version="opset1">
			<data element_type="f32" shape="10, 240, 1, 1" offset="198536" size="9600"/>
			<output>
				<port id="0" precision="FP32" names="StatefulPartitionedCall/EfficientDet-D0/functional_1/stack_2/block_1/se_reduce_conv2d/Conv2D/ReadVariableOp:0">
					<dim>10</dim>
					<dim>240</dim>
					<dim>1</dim>
					<dim>1</dim>
				</port>
			</output>
		</layer>
		<layer id="147" name="StatefulPartitionedCall/EfficientDet-D0/functional_1/stack_2/block_1/se_reduce_conv2d/Conv2D" type="Convolution" version="opset1">
			<data strides="1, 1" dilations="1, 1" pads_begin="0, 0" pads_end="0, 0" auto_pad="same_upper"/>
			<input>
				<port id="0" precision="FP32">
					<dim>1</dim>
					<dim>240</dim>
					<dim>1</dim>
					<dim>1</dim>
				</port>
				<port id="1" precision="FP32">
					<dim>10</dim>
					<dim>240</dim>
					<dim>1</dim>
					<dim>1</dim>
				</port>
			</input>
			<output>
				<port id="2" precision="FP32" names="StatefulPartitionedCall/EfficientDet-D0/functional_1/stack_2/block_1/se_reduce_conv2d/Conv2D:0">
					<dim>1</dim>
					<dim>10</dim>
					<dim>1</dim>
					<dim>1</dim>
				</port>
			</output>
		</layer>
		<layer id="148" name="StatefulPartitionedCall/EfficientDet-D0/functional_1/stack_2/block_1/se_reduce_conv2d/BiasAdd/ReadVariableOp" type="Const" version="opset1">
			<data element_type="f32" shape="1, 10, 1, 1" offset="208136" size="40"/>
			<output>
				<port id="0" precision="FP32" names="StatefulPartitionedCall/EfficientDet-D0/functional_1/stack_2/block_1/se_reduce_conv2d/BiasAdd/ReadVariableOp:0">
					<dim>1</dim>
					<dim>10</dim>
					<dim>1</dim>
					<dim>1</dim>
				</port>
			</output>
		</layer>
		<layer id="149" name="StatefulPartitionedCall/EfficientDet-D0/functional_1/stack_2/block_1/se_reduce_conv2d/BiasAdd/Add" type="Add" version="opset1">
			<data auto_broadcast="numpy"/>
			<input>
				<port id="0" precision="FP32">
					<dim>1</dim>
					<dim>10</dim>
					<dim>1</dim>
					<dim>1</dim>
				</port>
				<port id="1" precision="FP32">
					<dim>1</dim>
					<dim>10</dim>
					<dim>1</dim>
					<dim>1</dim>
				</port>
			</input>
			<output>
				<port id="2" precision="FP32" names="StatefulPartitionedCall/EfficientDet-D0/functional_1/stack_2/block_1/se_reduce_conv2d/BiasAdd:0">
					<dim>1</dim>
					<dim>10</dim>
					<dim>1</dim>
					<dim>1</dim>
				</port>
			</output>
		</layer>
		<layer id="150" name="StatefulPartitionedCall/EfficientDet-D0/functional_1/stack_2/block_1/se_reduce_activation/mul" type="Swish" version="opset4">
			<input>
				<port id="0" precision="FP32">
					<dim>1</dim>
					<dim>10</dim>
					<dim>1</dim>
					<dim>1</dim>
				</port>
			</input>
			<output>
				<port id="1" precision="FP32" names="StatefulPartitionedCall/EfficientDet-D0/functional_1/stack_2/block_1/se_reduce_activation/mul:0">
					<dim>1</dim>
					<dim>10</dim>
					<dim>1</dim>
					<dim>1</dim>
				</port>
			</output>
		</layer>
		<layer id="151" name="StatefulPartitionedCall/EfficientDet-D0/functional_1/stack_2/block_1/se_expand_conv2d/Conv2D/ReadVariableOp" type="Const" version="opset1">
			<data element_type="f32" shape="240, 10, 1, 1" offset="208176" size="9600"/>
			<output>
				<port id="0" precision="FP32" names="StatefulPartitionedCall/EfficientDet-D0/functional_1/stack_2/block_1/se_expand_conv2d/Conv2D/ReadVariableOp:0">
					<dim>240</dim>
					<dim>10</dim>
					<dim>1</dim>
					<dim>1</dim>
				</port>
			</output>
		</layer>
		<layer id="152" name="StatefulPartitionedCall/EfficientDet-D0/functional_1/stack_2/block_1/se_expand_conv2d/Conv2D" type="Convolution" version="opset1">
			<data strides="1, 1" dilations="1, 1" pads_begin="0, 0" pads_end="0, 0" auto_pad="same_upper"/>
			<input>
				<port id="0" precision="FP32">
					<dim>1</dim>
					<dim>10</dim>
					<dim>1</dim>
					<dim>1</dim>
				</port>
				<port id="1" precision="FP32">
					<dim>240</dim>
					<dim>10</dim>
					<dim>1</dim>
					<dim>1</dim>
				</port>
			</input>
			<output>
				<port id="2" precision="FP32" names="StatefulPartitionedCall/EfficientDet-D0/functional_1/stack_2/block_1/se_expand_conv2d/Conv2D:0">
					<dim>1</dim>
					<dim>240</dim>
					<dim>1</dim>
					<dim>1</dim>
				</port>
			</output>
		</layer>
		<layer id="153" name="StatefulPartitionedCall/EfficientDet-D0/functional_1/stack_2/block_1/se_expand_conv2d/BiasAdd/ReadVariableOp" type="Const" version="opset1">
			<data element_type="f32" shape="1, 240, 1, 1" offset="217776" size="960"/>
			<output>
				<port id="0" precision="FP32" names="StatefulPartitionedCall/EfficientDet-D0/functional_1/stack_2/block_1/se_expand_conv2d/BiasAdd/ReadVariableOp:0">
					<dim>1</dim>
					<dim>240</dim>
					<dim>1</dim>
					<dim>1</dim>
				</port>
			</output>
		</layer>
		<layer id="154" name="StatefulPartitionedCall/EfficientDet-D0/functional_1/stack_2/block_1/se_expand_conv2d/BiasAdd/Add" type="Add" version="opset1">
			<data auto_broadcast="numpy"/>
			<input>
				<port id="0" precision="FP32">
					<dim>1</dim>
					<dim>240</dim>
					<dim>1</dim>
					<dim>1</dim>
				</port>
				<port id="1" precision="FP32">
					<dim>1</dim>
					<dim>240</dim>
					<dim>1</dim>
					<dim>1</dim>
				</port>
			</input>
			<output>
				<port id="2" precision="FP32" names="StatefulPartitionedCall/EfficientDet-D0/functional_1/stack_2/block_1/se_expand_conv2d/BiasAdd:0">
					<dim>1</dim>
					<dim>240</dim>
					<dim>1</dim>
					<dim>1</dim>
				</port>
			</output>
		</layer>
		<layer id="155" name="StatefulPartitionedCall/EfficientDet-D0/functional_1/stack_2/block_1/se_expand_activation/Sigmoid" type="Sigmoid" version="opset1">
			<input>
				<port id="0" precision="FP32">
					<dim>1</dim>
					<dim>240</dim>
					<dim>1</dim>
					<dim>1</dim>
				</port>
			</input>
			<output>
				<port id="1" precision="FP32" names="StatefulPartitionedCall/EfficientDet-D0/functional_1/stack_2/block_1/se_expand_activation/Sigmoid:0">
					<dim>1</dim>
					<dim>240</dim>
					<dim>1</dim>
					<dim>1</dim>
				</port>
			</output>
		</layer>
		<layer id="156" name="StatefulPartitionedCall/EfficientDet-D0/functional_1/stack_2/block_1/se_excite/mul" type="Multiply" version="opset1">
			<data auto_broadcast="numpy"/>
			<input>
				<port id="0" precision="FP32">
					<dim>1</dim>
					<dim>240</dim>
					<dim>64</dim>
					<dim>64</dim>
				</port>
				<port id="1" precision="FP32">
					<dim>1</dim>
					<dim>240</dim>
					<dim>1</dim>
					<dim>1</dim>
				</port>
			</input>
			<output>
				<port id="2" precision="FP32" names="StatefulPartitionedCall/EfficientDet-D0/functional_1/stack_2/block_1/se_excite/mul:0">
					<dim>1</dim>
					<dim>240</dim>
					<dim>64</dim>
					<dim>64</dim>
				</port>
			</output>
		</layer>
		<layer id="157" name="StatefulPartitionedCall/EfficientDet-D0/functional_1/stack_2/block_1/project_bn/FusedBatchNormV3/mean/Fused_Mul__copy" type="Const" version="opset1">
			<data element_type="f32" shape="40, 240, 1, 1" offset="218736" size="38400"/>
			<output>
				<port id="0" precision="FP32" names="StatefulPartitionedCall/EfficientDet-D0/functional_1/stack_2/block_1/project_conv2d/Conv2D/ReadVariableOp:0">
					<dim>40</dim>
					<dim>240</dim>
					<dim>1</dim>
					<dim>1</dim>
				</port>
			</output>
		</layer>
		<layer id="158" name="StatefulPartitionedCall/EfficientDet-D0/functional_1/stack_2/block_1/project_conv2d/Conv2D" type="Convolution" version="opset1">
			<data strides="1, 1" dilations="1, 1" pads_begin="0, 0" pads_end="0, 0" auto_pad="same_upper"/>
			<input>
				<port id="0" precision="FP32">
					<dim>1</dim>
					<dim>240</dim>
					<dim>64</dim>
					<dim>64</dim>
				</port>
				<port id="1" precision="FP32">
					<dim>40</dim>
					<dim>240</dim>
					<dim>1</dim>
					<dim>1</dim>
				</port>
			</input>
			<output>
				<port id="2" precision="FP32">
					<dim>1</dim>
					<dim>40</dim>
					<dim>64</dim>
					<dim>64</dim>
				</port>
			</output>
		</layer>
		<layer id="159" name="data_add_4663046635" type="Const" version="opset1">
			<data element_type="f32" shape="1, 40, 1, 1" offset="257136" size="160"/>
			<output>
				<port id="0" precision="FP32">
					<dim>1</dim>
					<dim>40</dim>
					<dim>1</dim>
					<dim>1</dim>
				</port>
			</output>
		</layer>
		<layer id="160" name="StatefulPartitionedCall/EfficientDet-D0/functional_1/stack_2/block_1/project_bn/FusedBatchNormV3/variance/Fused_Add_" type="Add" version="opset1">
			<data auto_broadcast="numpy"/>
			<input>
				<port id="0" precision="FP32">
					<dim>1</dim>
					<dim>40</dim>
					<dim>64</dim>
					<dim>64</dim>
				</port>
				<port id="1" precision="FP32">
					<dim>1</dim>
					<dim>40</dim>
					<dim>1</dim>
					<dim>1</dim>
				</port>
			</input>
			<output>
				<port id="2" precision="FP32" names="StatefulPartitionedCall/EfficientDet-D0/functional_1/stack_2/block_1/drop/Identity:0,StatefulPartitionedCall/EfficientDet-D0/functional_1/stack_2/block_1/id/Identity:0,StatefulPartitionedCall/EfficientDet-D0/functional_1/stack_2/block_1/project_bn/FusedBatchNormV3:0">
					<dim>1</dim>
					<dim>40</dim>
					<dim>64</dim>
					<dim>64</dim>
				</port>
			</output>
		</layer>
		<layer id="161" name="StatefulPartitionedCall/EfficientDet-D0/functional_1/stack_2/block_1/add/add" type="Add" version="opset1">
			<data auto_broadcast="numpy"/>
			<input>
				<port id="0" precision="FP32">
					<dim>1</dim>
					<dim>40</dim>
					<dim>64</dim>
					<dim>64</dim>
				</port>
				<port id="1" precision="FP32">
					<dim>1</dim>
					<dim>40</dim>
					<dim>64</dim>
					<dim>64</dim>
				</port>
			</input>
			<output>
				<port id="2" precision="FP32" names="StatefulPartitionedCall/EfficientDet-D0/functional_1/stack_2/block_1/add/add:0">
					<dim>1</dim>
					<dim>40</dim>
					<dim>64</dim>
					<dim>64</dim>
				</port>
			</output>
		</layer>
		<layer id="162" name="StatefulPartitionedCall/EfficientDet-D0/bifpn/node_05/1_dn_lvl_3/input_0_up_lvl_3/1x1_pre_sample/batchnorm/FusedBatchNormV3/mean/Fused_Mul__copy" type="Const" version="opset1">
			<data element_type="f32" shape="64, 40, 1, 1" offset="257296" size="10240"/>
			<output>
				<port id="0" precision="FP32" names="StatefulPartitionedCall/EfficientDet-D0/bifpn/node_05/1_dn_lvl_3/input_0_up_lvl_3/1x1_pre_sample/conv/Conv2D/ReadVariableOp:0">
					<dim>64</dim>
					<dim>40</dim>
					<dim>1</dim>
					<dim>1</dim>
				</port>
			</output>
		</layer>
		<layer id="163" name="StatefulPartitionedCall/EfficientDet-D0/bifpn/node_05/1_dn_lvl_3/input_0_up_lvl_3/1x1_pre_sample/conv/Conv2D" type="Convolution" version="opset1">
			<data strides="1, 1" dilations="1, 1" pads_begin="0, 0" pads_end="0, 0" auto_pad="same_upper"/>
			<input>
				<port id="0" precision="FP32">
					<dim>1</dim>
					<dim>40</dim>
					<dim>64</dim>
					<dim>64</dim>
				</port>
				<port id="1" precision="FP32">
					<dim>64</dim>
					<dim>40</dim>
					<dim>1</dim>
					<dim>1</dim>
				</port>
			</input>
			<output>
				<port id="2" precision="FP32">
					<dim>1</dim>
					<dim>64</dim>
					<dim>64</dim>
					<dim>64</dim>
				</port>
			</output>
		</layer>
		<layer id="164" name="data_add_4663846643" type="Const" version="opset1">
			<data element_type="f32" shape="1, 64, 1, 1" offset="267536" size="256"/>
			<output>
				<port id="0" precision="FP32">
					<dim>1</dim>
					<dim>64</dim>
					<dim>1</dim>
					<dim>1</dim>
				</port>
			</output>
		</layer>
		<layer id="165" name="StatefulPartitionedCall/EfficientDet-D0/bifpn/node_05/1_dn_lvl_3/input_0_up_lvl_3/1x1_pre_sample/conv/BiasAdd/Add/Fused_Add_" type="Add" version="opset1">
			<data auto_broadcast="numpy"/>
			<input>
				<port id="0" precision="FP32">
					<dim>1</dim>
					<dim>64</dim>
					<dim>64</dim>
					<dim>64</dim>
				</port>
				<port id="1" precision="FP32">
					<dim>1</dim>
					<dim>64</dim>
					<dim>1</dim>
					<dim>1</dim>
				</port>
			</input>
			<output>
				<port id="2" precision="FP32" names="StatefulPartitionedCall/EfficientDet-D0/bifpn/node_05/1_dn_lvl_3/input_0_up_lvl_3/1x1_pre_sample/batchnorm/FusedBatchNormV3:0">
					<dim>1</dim>
					<dim>64</dim>
					<dim>64</dim>
					<dim>64</dim>
				</port>
			</output>
		</layer>
		<layer id="166" name="StatefulPartitionedCall/EfficientDet-D0/bifpn/node_05/1_dn_lvl_3/combine/stack/Unsqueeze_input_port_1/value" type="Const" version="opset1">
			<data element_type="i64" shape="1" offset="267792" size="8"/>
			<output>
				<port id="0" precision="I64">
					<dim>1</dim>
				</port>
			</output>
		</layer>
		<layer id="167" name="StatefulPartitionedCall/EfficientDet-D0/bifpn/node_05/1_dn_lvl_3/combine/stack/Unsqueeze" type="Unsqueeze" version="opset1">
			<input>
				<port id="0" precision="FP32">
					<dim>1</dim>
					<dim>64</dim>
					<dim>64</dim>
					<dim>64</dim>
				</port>
				<port id="1" precision="I64">
					<dim>1</dim>
				</port>
			</input>
			<output>
				<port id="2" precision="FP32">
					<dim>1</dim>
					<dim>64</dim>
					<dim>64</dim>
					<dim>64</dim>
					<dim>1</dim>
				</port>
			</output>
		</layer>
		<layer id="168" name="StatefulPartitionedCall/EfficientDet-D0/functional_1/stack_3/block_0/expand_bn/FusedBatchNormV3/mean/Fused_Mul__copy" type="Const" version="opset1">
			<data element_type="f32" shape="240, 40, 1, 1" offset="267800" size="38400"/>
			<output>
				<port id="0" precision="FP32" names="StatefulPartitionedCall/EfficientDet-D0/functional_1/stack_3/block_0/expand_conv2d/Conv2D/ReadVariableOp:0">
					<dim>240</dim>
					<dim>40</dim>
					<dim>1</dim>
					<dim>1</dim>
				</port>
			</output>
		</layer>
		<layer id="169" name="StatefulPartitionedCall/EfficientDet-D0/functional_1/stack_3/block_0/expand_conv2d/Conv2D" type="Convolution" version="opset1">
			<data strides="1, 1" dilations="1, 1" pads_begin="0, 0" pads_end="0, 0" auto_pad="same_upper"/>
			<input>
				<port id="0" precision="FP32">
					<dim>1</dim>
					<dim>40</dim>
					<dim>64</dim>
					<dim>64</dim>
				</port>
				<port id="1" precision="FP32">
					<dim>240</dim>
					<dim>40</dim>
					<dim>1</dim>
					<dim>1</dim>
				</port>
			</input>
			<output>
				<port id="2" precision="FP32">
					<dim>1</dim>
					<dim>240</dim>
					<dim>64</dim>
					<dim>64</dim>
				</port>
			</output>
		</layer>
		<layer id="170" name="data_add_4664646651" type="Const" version="opset1">
			<data element_type="f32" shape="1, 240, 1, 1" offset="306200" size="960"/>
			<output>
				<port id="0" precision="FP32">
					<dim>1</dim>
					<dim>240</dim>
					<dim>1</dim>
					<dim>1</dim>
				</port>
			</output>
		</layer>
		<layer id="171" name="StatefulPartitionedCall/EfficientDet-D0/functional_1/stack_3/block_0/expand_bn/FusedBatchNormV3/variance/Fused_Add_" type="Add" version="opset1">
			<data auto_broadcast="numpy"/>
			<input>
				<port id="0" precision="FP32">
					<dim>1</dim>
					<dim>240</dim>
					<dim>64</dim>
					<dim>64</dim>
				</port>
				<port id="1" precision="FP32">
					<dim>1</dim>
					<dim>240</dim>
					<dim>1</dim>
					<dim>1</dim>
				</port>
			</input>
			<output>
				<port id="2" precision="FP32" names="StatefulPartitionedCall/EfficientDet-D0/functional_1/stack_3/block_0/expand_bn/FusedBatchNormV3:0">
					<dim>1</dim>
					<dim>240</dim>
					<dim>64</dim>
					<dim>64</dim>
				</port>
			</output>
		</layer>
		<layer id="172" name="StatefulPartitionedCall/EfficientDet-D0/functional_1/stack_3/block_0/expand_activation/mul" type="Swish" version="opset4">
			<input>
				<port id="0" precision="FP32">
					<dim>1</dim>
					<dim>240</dim>
					<dim>64</dim>
					<dim>64</dim>
				</port>
			</input>
			<output>
				<port id="1" precision="FP32" names="StatefulPartitionedCall/EfficientDet-D0/functional_1/stack_3/block_0/expand_activation/mul:0">
					<dim>1</dim>
					<dim>240</dim>
					<dim>64</dim>
					<dim>64</dim>
				</port>
			</output>
		</layer>
		<layer id="173" name="StatefulPartitionedCall/EfficientDet-D0/functional_1/stack_3/block_0/depthwise_bn/FusedBatchNormV3/mean/Fused_Mul__copy" type="Const" version="opset1">
			<data element_type="f32" shape="240, 1, 1, 3, 3" offset="307160" size="8640"/>
			<output>
				<port id="0" precision="FP32" names="StatefulPartitionedCall/EfficientDet-D0/functional_1/stack_3/block_0/depthwise_conv2d/depthwise/ReadVariableOp:0">
					<dim>240</dim>
					<dim>1</dim>
					<dim>1</dim>
					<dim>3</dim>
					<dim>3</dim>
				</port>
			</output>
		</layer>
		<layer id="174" name="StatefulPartitionedCall/EfficientDet-D0/functional_1/stack_3/block_0/depthwise_conv2d/depthwise" type="GroupConvolution" version="opset1">
			<data strides="2, 2" pads_begin="0, 0" pads_end="1, 1" dilations="1, 1" auto_pad="same_upper"/>
			<input>
				<port id="0" precision="FP32">
					<dim>1</dim>
					<dim>240</dim>
					<dim>64</dim>
					<dim>64</dim>
				</port>
				<port id="1" precision="FP32">
					<dim>240</dim>
					<dim>1</dim>
					<dim>1</dim>
					<dim>3</dim>
					<dim>3</dim>
				</port>
			</input>
			<output>
				<port id="2" precision="FP32">
					<dim>1</dim>
					<dim>240</dim>
					<dim>32</dim>
					<dim>32</dim>
				</port>
			</output>
		</layer>
		<layer id="175" name="data_add_4665446659" type="Const" version="opset1">
			<data element_type="f32" shape="1, 240, 1, 1" offset="315800" size="960"/>
			<output>
				<port id="0" precision="FP32">
					<dim>1</dim>
					<dim>240</dim>
					<dim>1</dim>
					<dim>1</dim>
				</port>
			</output>
		</layer>
		<layer id="176" name="StatefulPartitionedCall/EfficientDet-D0/functional_1/stack_3/block_0/depthwise_bn/FusedBatchNormV3/variance/Fused_Add_" type="Add" version="opset1">
			<data auto_broadcast="numpy"/>
			<input>
				<port id="0" precision="FP32">
					<dim>1</dim>
					<dim>240</dim>
					<dim>32</dim>
					<dim>32</dim>
				</port>
				<port id="1" precision="FP32">
					<dim>1</dim>
					<dim>240</dim>
					<dim>1</dim>
					<dim>1</dim>
				</port>
			</input>
			<output>
				<port id="2" precision="FP32" names="StatefulPartitionedCall/EfficientDet-D0/functional_1/stack_3/block_0/depthwise_bn/FusedBatchNormV3:0">
					<dim>1</dim>
					<dim>240</dim>
					<dim>32</dim>
					<dim>32</dim>
				</port>
			</output>
		</layer>
		<layer id="177" name="StatefulPartitionedCall/EfficientDet-D0/functional_1/stack_3/block_0/depthwise_activation/mul" type="Swish" version="opset4">
			<input>
				<port id="0" precision="FP32">
					<dim>1</dim>
					<dim>240</dim>
					<dim>32</dim>
					<dim>32</dim>
				</port>
			</input>
			<output>
				<port id="1" precision="FP32">
					<dim>1</dim>
					<dim>240</dim>
					<dim>32</dim>
					<dim>32</dim>
				</port>
			</output>
		</layer>
		<layer id="178" name="StatefulPartitionedCall/EfficientDet-D0/functional_1/stack_3/block_0/se_squeeze/MeanGather6515082445" type="Const" version="opset1">
			<data element_type="i64" shape="2" offset="4888" size="16"/>
			<output>
				<port id="0" precision="I64">
					<dim>2</dim>
				</port>
			</output>
		</layer>
		<layer id="179" name="StatefulPartitionedCall/EfficientDet-D0/functional_1/stack_3/block_0/se_squeeze/Mean" type="ReduceMean" version="opset1">
			<data keep_dims="false"/>
			<input>
				<port id="0" precision="FP32">
					<dim>1</dim>
					<dim>240</dim>
					<dim>32</dim>
					<dim>32</dim>
				</port>
				<port id="1" precision="I64">
					<dim>2</dim>
				</port>
			</input>
			<output>
				<port id="2" precision="FP32" names="StatefulPartitionedCall/EfficientDet-D0/functional_1/stack_3/block_0/se_squeeze/Mean:0">
					<dim>1</dim>
					<dim>240</dim>
				</port>
			</output>
		</layer>
		<layer id="180" name="StatefulPartitionedCall/EfficientDet-D0/functional_1/stack_3/block_0/se_reshape/Reshape/shape" type="Const" version="opset1">
			<data element_type="i64" shape="4" offset="198504" size="32"/>
			<output>
				<port id="0" precision="I64" names="StatefulPartitionedCall/EfficientDet-D0/functional_1/stack_3/block_0/se_reshape/Reshape/shape:0">
					<dim>4</dim>
				</port>
			</output>
		</layer>
		<layer id="181" name="StatefulPartitionedCall/EfficientDet-D0/functional_1/stack_3/block_0/se_reshape/Reshape" type="Reshape" version="opset1">
			<data special_zero="false"/>
			<input>
				<port id="0" precision="FP32">
					<dim>1</dim>
					<dim>240</dim>
				</port>
				<port id="1" precision="I64">
					<dim>4</dim>
				</port>
			</input>
			<output>
				<port id="2" precision="FP32">
					<dim>1</dim>
					<dim>1</dim>
					<dim>1</dim>
					<dim>240</dim>
				</port>
			</output>
		</layer>
		<layer id="182" name="StatefulPartitionedCall/EfficientDet-D0/functional_1/stack_3/block_0/se_reshape/Reshape/Transpose/value5646782760" type="Const" version="opset1">
			<data element_type="i64" shape="4" offset="4936" size="32"/>
			<output>
				<port id="0" precision="I64">
					<dim>4</dim>
				</port>
			</output>
		</layer>
		<layer id="183" name="StatefulPartitionedCall/EfficientDet-D0/functional_1/stack_3/block_0/se_reshape/Reshape/Transpose" type="Transpose" version="opset1">
			<input>
				<port id="0" precision="FP32">
					<dim>1</dim>
					<dim>1</dim>
					<dim>1</dim>
					<dim>240</dim>
				</port>
				<port id="1" precision="I64">
					<dim>4</dim>
				</port>
			</input>
			<output>
				<port id="2" precision="FP32" names="StatefulPartitionedCall/EfficientDet-D0/functional_1/stack_3/block_0/se_reshape/Reshape:0">
					<dim>1</dim>
					<dim>240</dim>
					<dim>1</dim>
					<dim>1</dim>
				</port>
			</output>
		</layer>
		<layer id="184" name="StatefulPartitionedCall/EfficientDet-D0/functional_1/stack_3/block_0/se_reduce_conv2d/Conv2D/ReadVariableOp" type="Const" version="opset1">
			<data element_type="f32" shape="10, 240, 1, 1" offset="316760" size="9600"/>
			<output>
				<port id="0" precision="FP32" names="StatefulPartitionedCall/EfficientDet-D0/functional_1/stack_3/block_0/se_reduce_conv2d/Conv2D/ReadVariableOp:0">
					<dim>10</dim>
					<dim>240</dim>
					<dim>1</dim>
					<dim>1</dim>
				</port>
			</output>
		</layer>
		<layer id="185" name="StatefulPartitionedCall/EfficientDet-D0/functional_1/stack_3/block_0/se_reduce_conv2d/Conv2D" type="Convolution" version="opset1">
			<data strides="1, 1" dilations="1, 1" pads_begin="0, 0" pads_end="0, 0" auto_pad="same_upper"/>
			<input>
				<port id="0" precision="FP32">
					<dim>1</dim>
					<dim>240</dim>
					<dim>1</dim>
					<dim>1</dim>
				</port>
				<port id="1" precision="FP32">
					<dim>10</dim>
					<dim>240</dim>
					<dim>1</dim>
					<dim>1</dim>
				</port>
			</input>
			<output>
				<port id="2" precision="FP32" names="StatefulPartitionedCall/EfficientDet-D0/functional_1/stack_3/block_0/se_reduce_conv2d/Conv2D:0">
					<dim>1</dim>
					<dim>10</dim>
					<dim>1</dim>
					<dim>1</dim>
				</port>
			</output>
		</layer>
		<layer id="186" name="StatefulPartitionedCall/EfficientDet-D0/functional_1/stack_3/block_0/se_reduce_conv2d/BiasAdd/ReadVariableOp" type="Const" version="opset1">
			<data element_type="f32" shape="1, 10, 1, 1" offset="326360" size="40"/>
			<output>
				<port id="0" precision="FP32" names="StatefulPartitionedCall/EfficientDet-D0/functional_1/stack_3/block_0/se_reduce_conv2d/BiasAdd/ReadVariableOp:0">
					<dim>1</dim>
					<dim>10</dim>
					<dim>1</dim>
					<dim>1</dim>
				</port>
			</output>
		</layer>
		<layer id="187" name="StatefulPartitionedCall/EfficientDet-D0/functional_1/stack_3/block_0/se_reduce_conv2d/BiasAdd/Add" type="Add" version="opset1">
			<data auto_broadcast="numpy"/>
			<input>
				<port id="0" precision="FP32">
					<dim>1</dim>
					<dim>10</dim>
					<dim>1</dim>
					<dim>1</dim>
				</port>
				<port id="1" precision="FP32">
					<dim>1</dim>
					<dim>10</dim>
					<dim>1</dim>
					<dim>1</dim>
				</port>
			</input>
			<output>
				<port id="2" precision="FP32" names="StatefulPartitionedCall/EfficientDet-D0/functional_1/stack_3/block_0/se_reduce_conv2d/BiasAdd:0">
					<dim>1</dim>
					<dim>10</dim>
					<dim>1</dim>
					<dim>1</dim>
				</port>
			</output>
		</layer>
		<layer id="188" name="StatefulPartitionedCall/EfficientDet-D0/functional_1/stack_3/block_0/se_reduce_activation/mul" type="Swish" version="opset4">
			<input>
				<port id="0" precision="FP32">
					<dim>1</dim>
					<dim>10</dim>
					<dim>1</dim>
					<dim>1</dim>
				</port>
			</input>
			<output>
				<port id="1" precision="FP32" names="StatefulPartitionedCall/EfficientDet-D0/functional_1/stack_3/block_0/se_reduce_activation/mul:0">
					<dim>1</dim>
					<dim>10</dim>
					<dim>1</dim>
					<dim>1</dim>
				</port>
			</output>
		</layer>
		<layer id="189" name="StatefulPartitionedCall/EfficientDet-D0/functional_1/stack_3/block_0/se_expand_conv2d/Conv2D/ReadVariableOp" type="Const" version="opset1">
			<data element_type="f32" shape="240, 10, 1, 1" offset="326400" size="9600"/>
			<output>
				<port id="0" precision="FP32" names="StatefulPartitionedCall/EfficientDet-D0/functional_1/stack_3/block_0/se_expand_conv2d/Conv2D/ReadVariableOp:0">
					<dim>240</dim>
					<dim>10</dim>
					<dim>1</dim>
					<dim>1</dim>
				</port>
			</output>
		</layer>
		<layer id="190" name="StatefulPartitionedCall/EfficientDet-D0/functional_1/stack_3/block_0/se_expand_conv2d/Conv2D" type="Convolution" version="opset1">
			<data strides="1, 1" dilations="1, 1" pads_begin="0, 0" pads_end="0, 0" auto_pad="same_upper"/>
			<input>
				<port id="0" precision="FP32">
					<dim>1</dim>
					<dim>10</dim>
					<dim>1</dim>
					<dim>1</dim>
				</port>
				<port id="1" precision="FP32">
					<dim>240</dim>
					<dim>10</dim>
					<dim>1</dim>
					<dim>1</dim>
				</port>
			</input>
			<output>
				<port id="2" precision="FP32" names="StatefulPartitionedCall/EfficientDet-D0/functional_1/stack_3/block_0/se_expand_conv2d/Conv2D:0">
					<dim>1</dim>
					<dim>240</dim>
					<dim>1</dim>
					<dim>1</dim>
				</port>
			</output>
		</layer>
		<layer id="191" name="StatefulPartitionedCall/EfficientDet-D0/functional_1/stack_3/block_0/se_expand_conv2d/BiasAdd/ReadVariableOp" type="Const" version="opset1">
			<data element_type="f32" shape="1, 240, 1, 1" offset="336000" size="960"/>
			<output>
				<port id="0" precision="FP32" names="StatefulPartitionedCall/EfficientDet-D0/functional_1/stack_3/block_0/se_expand_conv2d/BiasAdd/ReadVariableOp:0">
					<dim>1</dim>
					<dim>240</dim>
					<dim>1</dim>
					<dim>1</dim>
				</port>
			</output>
		</layer>
		<layer id="192" name="StatefulPartitionedCall/EfficientDet-D0/functional_1/stack_3/block_0/se_expand_conv2d/BiasAdd/Add" type="Add" version="opset1">
			<data auto_broadcast="numpy"/>
			<input>
				<port id="0" precision="FP32">
					<dim>1</dim>
					<dim>240</dim>
					<dim>1</dim>
					<dim>1</dim>
				</port>
				<port id="1" precision="FP32">
					<dim>1</dim>
					<dim>240</dim>
					<dim>1</dim>
					<dim>1</dim>
				</port>
			</input>
			<output>
				<port id="2" precision="FP32" names="StatefulPartitionedCall/EfficientDet-D0/functional_1/stack_3/block_0/se_expand_conv2d/BiasAdd:0">
					<dim>1</dim>
					<dim>240</dim>
					<dim>1</dim>
					<dim>1</dim>
				</port>
			</output>
		</layer>
		<layer id="193" name="StatefulPartitionedCall/EfficientDet-D0/functional_1/stack_3/block_0/se_expand_activation/Sigmoid" type="Sigmoid" version="opset1">
			<input>
				<port id="0" precision="FP32">
					<dim>1</dim>
					<dim>240</dim>
					<dim>1</dim>
					<dim>1</dim>
				</port>
			</input>
			<output>
				<port id="1" precision="FP32" names="StatefulPartitionedCall/EfficientDet-D0/functional_1/stack_3/block_0/se_expand_activation/Sigmoid:0">
					<dim>1</dim>
					<dim>240</dim>
					<dim>1</dim>
					<dim>1</dim>
				</port>
			</output>
		</layer>
		<layer id="194" name="StatefulPartitionedCall/EfficientDet-D0/functional_1/stack_3/block_0/se_excite/mul" type="Multiply" version="opset1">
			<data auto_broadcast="numpy"/>
			<input>
				<port id="0" precision="FP32">
					<dim>1</dim>
					<dim>240</dim>
					<dim>32</dim>
					<dim>32</dim>
				</port>
				<port id="1" precision="FP32">
					<dim>1</dim>
					<dim>240</dim>
					<dim>1</dim>
					<dim>1</dim>
				</port>
			</input>
			<output>
				<port id="2" precision="FP32" names="StatefulPartitionedCall/EfficientDet-D0/functional_1/stack_3/block_0/se_excite/mul:0">
					<dim>1</dim>
					<dim>240</dim>
					<dim>32</dim>
					<dim>32</dim>
				</port>
			</output>
		</layer>
		<layer id="195" name="StatefulPartitionedCall/EfficientDet-D0/functional_1/stack_3/block_0/project_bn/FusedBatchNormV3/mean/Fused_Mul__copy" type="Const" version="opset1">
			<data element_type="f32" shape="80, 240, 1, 1" offset="336960" size="76800"/>
			<output>
				<port id="0" precision="FP32" names="StatefulPartitionedCall/EfficientDet-D0/functional_1/stack_3/block_0/project_conv2d/Conv2D/ReadVariableOp:0">
					<dim>80</dim>
					<dim>240</dim>
					<dim>1</dim>
					<dim>1</dim>
				</port>
			</output>
		</layer>
		<layer id="196" name="StatefulPartitionedCall/EfficientDet-D0/functional_1/stack_3/block_0/project_conv2d/Conv2D" type="Convolution" version="opset1">
			<data strides="1, 1" dilations="1, 1" pads_begin="0, 0" pads_end="0, 0" auto_pad="same_upper"/>
			<input>
				<port id="0" precision="FP32">
					<dim>1</dim>
					<dim>240</dim>
					<dim>32</dim>
					<dim>32</dim>
				</port>
				<port id="1" precision="FP32">
					<dim>80</dim>
					<dim>240</dim>
					<dim>1</dim>
					<dim>1</dim>
				</port>
			</input>
			<output>
				<port id="2" precision="FP32">
					<dim>1</dim>
					<dim>80</dim>
					<dim>32</dim>
					<dim>32</dim>
				</port>
			</output>
		</layer>
		<layer id="197" name="data_add_4666246667" type="Const" version="opset1">
			<data element_type="f32" shape="1, 80, 1, 1" offset="413760" size="320"/>
			<output>
				<port id="0" precision="FP32">
					<dim>1</dim>
					<dim>80</dim>
					<dim>1</dim>
					<dim>1</dim>
				</port>
			</output>
		</layer>
		<layer id="198" name="StatefulPartitionedCall/EfficientDet-D0/functional_1/stack_3/block_0/project_bn/FusedBatchNormV3/variance/Fused_Add_" type="Add" version="opset1">
			<data auto_broadcast="numpy"/>
			<input>
				<port id="0" precision="FP32">
					<dim>1</dim>
					<dim>80</dim>
					<dim>32</dim>
					<dim>32</dim>
				</port>
				<port id="1" precision="FP32">
					<dim>1</dim>
					<dim>80</dim>
					<dim>1</dim>
					<dim>1</dim>
				</port>
			</input>
			<output>
				<port id="2" precision="FP32" names="StatefulPartitionedCall/EfficientDet-D0/functional_1/stack_3/block_0/id/Identity:0,StatefulPartitionedCall/EfficientDet-D0/functional_1/stack_3/block_0/project_bn/FusedBatchNormV3:0">
					<dim>1</dim>
					<dim>80</dim>
					<dim>32</dim>
					<dim>32</dim>
				</port>
			</output>
		</layer>
		<layer id="199" name="StatefulPartitionedCall/EfficientDet-D0/functional_1/stack_3/block_1/expand_bn/FusedBatchNormV3/mean/Fused_Mul__copy" type="Const" version="opset1">
			<data element_type="f32" shape="480, 80, 1, 1" offset="414080" size="153600"/>
			<output>
				<port id="0" precision="FP32" names="StatefulPartitionedCall/EfficientDet-D0/functional_1/stack_3/block_1/expand_conv2d/Conv2D/ReadVariableOp:0">
					<dim>480</dim>
					<dim>80</dim>
					<dim>1</dim>
					<dim>1</dim>
				</port>
			</output>
		</layer>
		<layer id="200" name="StatefulPartitionedCall/EfficientDet-D0/functional_1/stack_3/block_1/expand_conv2d/Conv2D" type="Convolution" version="opset1">
			<data strides="1, 1" dilations="1, 1" pads_begin="0, 0" pads_end="0, 0" auto_pad="same_upper"/>
			<input>
				<port id="0" precision="FP32">
					<dim>1</dim>
					<dim>80</dim>
					<dim>32</dim>
					<dim>32</dim>
				</port>
				<port id="1" precision="FP32">
					<dim>480</dim>
					<dim>80</dim>
					<dim>1</dim>
					<dim>1</dim>
				</port>
			</input>
			<output>
				<port id="2" precision="FP32">
					<dim>1</dim>
					<dim>480</dim>
					<dim>32</dim>
					<dim>32</dim>
				</port>
			</output>
		</layer>
		<layer id="201" name="data_add_4667046675" type="Const" version="opset1">
			<data element_type="f32" shape="1, 480, 1, 1" offset="567680" size="1920"/>
			<output>
				<port id="0" precision="FP32">
					<dim>1</dim>
					<dim>480</dim>
					<dim>1</dim>
					<dim>1</dim>
				</port>
			</output>
		</layer>
		<layer id="202" name="StatefulPartitionedCall/EfficientDet-D0/functional_1/stack_3/block_1/expand_bn/FusedBatchNormV3/variance/Fused_Add_" type="Add" version="opset1">
			<data auto_broadcast="numpy"/>
			<input>
				<port id="0" precision="FP32">
					<dim>1</dim>
					<dim>480</dim>
					<dim>32</dim>
					<dim>32</dim>
				</port>
				<port id="1" precision="FP32">
					<dim>1</dim>
					<dim>480</dim>
					<dim>1</dim>
					<dim>1</dim>
				</port>
			</input>
			<output>
				<port id="2" precision="FP32" names="StatefulPartitionedCall/EfficientDet-D0/functional_1/stack_3/block_1/expand_bn/FusedBatchNormV3:0">
					<dim>1</dim>
					<dim>480</dim>
					<dim>32</dim>
					<dim>32</dim>
				</port>
			</output>
		</layer>
		<layer id="203" name="StatefulPartitionedCall/EfficientDet-D0/functional_1/stack_3/block_1/expand_activation/mul" type="Swish" version="opset4">
			<input>
				<port id="0" precision="FP32">
					<dim>1</dim>
					<dim>480</dim>
					<dim>32</dim>
					<dim>32</dim>
				</port>
			</input>
			<output>
				<port id="1" precision="FP32" names="StatefulPartitionedCall/EfficientDet-D0/functional_1/stack_3/block_1/expand_activation/mul:0">
					<dim>1</dim>
					<dim>480</dim>
					<dim>32</dim>
					<dim>32</dim>
				</port>
			</output>
		</layer>
		<layer id="204" name="StatefulPartitionedCall/EfficientDet-D0/functional_1/stack_3/block_1/depthwise_bn/FusedBatchNormV3/mean/Fused_Mul__copy" type="Const" version="opset1">
			<data element_type="f32" shape="480, 1, 1, 3, 3" offset="569600" size="17280"/>
			<output>
				<port id="0" precision="FP32" names="StatefulPartitionedCall/EfficientDet-D0/functional_1/stack_3/block_1/depthwise_conv2d/depthwise/ReadVariableOp:0">
					<dim>480</dim>
					<dim>1</dim>
					<dim>1</dim>
					<dim>3</dim>
					<dim>3</dim>
				</port>
			</output>
		</layer>
		<layer id="205" name="StatefulPartitionedCall/EfficientDet-D0/functional_1/stack_3/block_1/depthwise_conv2d/depthwise" type="GroupConvolution" version="opset1">
			<data strides="1, 1" pads_begin="1, 1" pads_end="1, 1" dilations="1, 1" auto_pad="same_upper"/>
			<input>
				<port id="0" precision="FP32">
					<dim>1</dim>
					<dim>480</dim>
					<dim>32</dim>
					<dim>32</dim>
				</port>
				<port id="1" precision="FP32">
					<dim>480</dim>
					<dim>1</dim>
					<dim>1</dim>
					<dim>3</dim>
					<dim>3</dim>
				</port>
			</input>
			<output>
				<port id="2" precision="FP32">
					<dim>1</dim>
					<dim>480</dim>
					<dim>32</dim>
					<dim>32</dim>
				</port>
			</output>
		</layer>
		<layer id="206" name="data_add_4667846683" type="Const" version="opset1">
			<data element_type="f32" shape="1, 480, 1, 1" offset="586880" size="1920"/>
			<output>
				<port id="0" precision="FP32">
					<dim>1</dim>
					<dim>480</dim>
					<dim>1</dim>
					<dim>1</dim>
				</port>
			</output>
		</layer>
		<layer id="207" name="StatefulPartitionedCall/EfficientDet-D0/functional_1/stack_3/block_1/depthwise_bn/FusedBatchNormV3/variance/Fused_Add_" type="Add" version="opset1">
			<data auto_broadcast="numpy"/>
			<input>
				<port id="0" precision="FP32">
					<dim>1</dim>
					<dim>480</dim>
					<dim>32</dim>
					<dim>32</dim>
				</port>
				<port id="1" precision="FP32">
					<dim>1</dim>
					<dim>480</dim>
					<dim>1</dim>
					<dim>1</dim>
				</port>
			</input>
			<output>
				<port id="2" precision="FP32" names="StatefulPartitionedCall/EfficientDet-D0/functional_1/stack_3/block_1/depthwise_bn/FusedBatchNormV3:0">
					<dim>1</dim>
					<dim>480</dim>
					<dim>32</dim>
					<dim>32</dim>
				</port>
			</output>
		</layer>
		<layer id="208" name="StatefulPartitionedCall/EfficientDet-D0/functional_1/stack_3/block_1/depthwise_activation/mul" type="Swish" version="opset4">
			<input>
				<port id="0" precision="FP32">
					<dim>1</dim>
					<dim>480</dim>
					<dim>32</dim>
					<dim>32</dim>
				</port>
			</input>
			<output>
				<port id="1" precision="FP32">
					<dim>1</dim>
					<dim>480</dim>
					<dim>32</dim>
					<dim>32</dim>
				</port>
			</output>
		</layer>
		<layer id="209" name="StatefulPartitionedCall/EfficientDet-D0/functional_1/stack_3/block_1/se_squeeze/MeanGather6509482859" type="Const" version="opset1">
			<data element_type="i64" shape="2" offset="4888" size="16"/>
			<output>
				<port id="0" precision="I64">
					<dim>2</dim>
				</port>
			</output>
		</layer>
		<layer id="210" name="StatefulPartitionedCall/EfficientDet-D0/functional_1/stack_3/block_1/se_squeeze/Mean" type="ReduceMean" version="opset1">
			<data keep_dims="false"/>
			<input>
				<port id="0" precision="FP32">
					<dim>1</dim>
					<dim>480</dim>
					<dim>32</dim>
					<dim>32</dim>
				</port>
				<port id="1" precision="I64">
					<dim>2</dim>
				</port>
			</input>
			<output>
				<port id="2" precision="FP32" names="StatefulPartitionedCall/EfficientDet-D0/functional_1/stack_3/block_1/se_squeeze/Mean:0">
					<dim>1</dim>
					<dim>480</dim>
				</port>
			</output>
		</layer>
		<layer id="211" name="StatefulPartitionedCall/EfficientDet-D0/functional_1/stack_3/block_1/se_reshape/Reshape/shape" type="Const" version="opset1">
			<data element_type="i64" shape="4" offset="588800" size="32"/>
			<output>
				<port id="0" precision="I64" names="StatefulPartitionedCall/EfficientDet-D0/functional_1/stack_3/block_1/se_reshape/Reshape/shape:0">
					<dim>4</dim>
				</port>
			</output>
		</layer>
		<layer id="212" name="StatefulPartitionedCall/EfficientDet-D0/functional_1/stack_3/block_1/se_reshape/Reshape" type="Reshape" version="opset1">
			<data special_zero="false"/>
			<input>
				<port id="0" precision="FP32">
					<dim>1</dim>
					<dim>480</dim>
				</port>
				<port id="1" precision="I64">
					<dim>4</dim>
				</port>
			</input>
			<output>
				<port id="2" precision="FP32">
					<dim>1</dim>
					<dim>1</dim>
					<dim>1</dim>
					<dim>480</dim>
				</port>
			</output>
		</layer>
		<layer id="213" name="StatefulPartitionedCall/EfficientDet-D0/functional_1/stack_3/block_1/se_reshape/Reshape/Transpose/value5647183663" type="Const" version="opset1">
			<data element_type="i64" shape="4" offset="4936" size="32"/>
			<output>
				<port id="0" precision="I64">
					<dim>4</dim>
				</port>
			</output>
		</layer>
		<layer id="214" name="StatefulPartitionedCall/EfficientDet-D0/functional_1/stack_3/block_1/se_reshape/Reshape/Transpose" type="Transpose" version="opset1">
			<input>
				<port id="0" precision="FP32">
					<dim>1</dim>
					<dim>1</dim>
					<dim>1</dim>
					<dim>480</dim>
				</port>
				<port id="1" precision="I64">
					<dim>4</dim>
				</port>
			</input>
			<output>
				<port id="2" precision="FP32" names="StatefulPartitionedCall/EfficientDet-D0/functional_1/stack_3/block_1/se_reshape/Reshape:0">
					<dim>1</dim>
					<dim>480</dim>
					<dim>1</dim>
					<dim>1</dim>
				</port>
			</output>
		</layer>
		<layer id="215" name="StatefulPartitionedCall/EfficientDet-D0/functional_1/stack_3/block_1/se_reduce_conv2d/Conv2D/ReadVariableOp" type="Const" version="opset1">
			<data element_type="f32" shape="20, 480, 1, 1" offset="588832" size="38400"/>
			<output>
				<port id="0" precision="FP32" names="StatefulPartitionedCall/EfficientDet-D0/functional_1/stack_3/block_1/se_reduce_conv2d/Conv2D/ReadVariableOp:0">
					<dim>20</dim>
					<dim>480</dim>
					<dim>1</dim>
					<dim>1</dim>
				</port>
			</output>
		</layer>
		<layer id="216" name="StatefulPartitionedCall/EfficientDet-D0/functional_1/stack_3/block_1/se_reduce_conv2d/Conv2D" type="Convolution" version="opset1">
			<data strides="1, 1" dilations="1, 1" pads_begin="0, 0" pads_end="0, 0" auto_pad="same_upper"/>
			<input>
				<port id="0" precision="FP32">
					<dim>1</dim>
					<dim>480</dim>
					<dim>1</dim>
					<dim>1</dim>
				</port>
				<port id="1" precision="FP32">
					<dim>20</dim>
					<dim>480</dim>
					<dim>1</dim>
					<dim>1</dim>
				</port>
			</input>
			<output>
				<port id="2" precision="FP32" names="StatefulPartitionedCall/EfficientDet-D0/functional_1/stack_3/block_1/se_reduce_conv2d/Conv2D:0">
					<dim>1</dim>
					<dim>20</dim>
					<dim>1</dim>
					<dim>1</dim>
				</port>
			</output>
		</layer>
		<layer id="217" name="StatefulPartitionedCall/EfficientDet-D0/functional_1/stack_3/block_1/se_reduce_conv2d/BiasAdd/ReadVariableOp" type="Const" version="opset1">
			<data element_type="f32" shape="1, 20, 1, 1" offset="627232" size="80"/>
			<output>
				<port id="0" precision="FP32" names="StatefulPartitionedCall/EfficientDet-D0/functional_1/stack_3/block_1/se_reduce_conv2d/BiasAdd/ReadVariableOp:0">
					<dim>1</dim>
					<dim>20</dim>
					<dim>1</dim>
					<dim>1</dim>
				</port>
			</output>
		</layer>
		<layer id="218" name="StatefulPartitionedCall/EfficientDet-D0/functional_1/stack_3/block_1/se_reduce_conv2d/BiasAdd/Add" type="Add" version="opset1">
			<data auto_broadcast="numpy"/>
			<input>
				<port id="0" precision="FP32">
					<dim>1</dim>
					<dim>20</dim>
					<dim>1</dim>
					<dim>1</dim>
				</port>
				<port id="1" precision="FP32">
					<dim>1</dim>
					<dim>20</dim>
					<dim>1</dim>
					<dim>1</dim>
				</port>
			</input>
			<output>
				<port id="2" precision="FP32" names="StatefulPartitionedCall/EfficientDet-D0/functional_1/stack_3/block_1/se_reduce_conv2d/BiasAdd:0">
					<dim>1</dim>
					<dim>20</dim>
					<dim>1</dim>
					<dim>1</dim>
				</port>
			</output>
		</layer>
		<layer id="219" name="StatefulPartitionedCall/EfficientDet-D0/functional_1/stack_3/block_1/se_reduce_activation/mul" type="Swish" version="opset4">
			<input>
				<port id="0" precision="FP32">
					<dim>1</dim>
					<dim>20</dim>
					<dim>1</dim>
					<dim>1</dim>
				</port>
			</input>
			<output>
				<port id="1" precision="FP32" names="StatefulPartitionedCall/EfficientDet-D0/functional_1/stack_3/block_1/se_reduce_activation/mul:0">
					<dim>1</dim>
					<dim>20</dim>
					<dim>1</dim>
					<dim>1</dim>
				</port>
			</output>
		</layer>
		<layer id="220" name="StatefulPartitionedCall/EfficientDet-D0/functional_1/stack_3/block_1/se_expand_conv2d/Conv2D/ReadVariableOp" type="Const" version="opset1">
			<data element_type="f32" shape="480, 20, 1, 1" offset="627312" size="38400"/>
			<output>
				<port id="0" precision="FP32" names="StatefulPartitionedCall/EfficientDet-D0/functional_1/stack_3/block_1/se_expand_conv2d/Conv2D/ReadVariableOp:0">
					<dim>480</dim>
					<dim>20</dim>
					<dim>1</dim>
					<dim>1</dim>
				</port>
			</output>
		</layer>
		<layer id="221" name="StatefulPartitionedCall/EfficientDet-D0/functional_1/stack_3/block_1/se_expand_conv2d/Conv2D" type="Convolution" version="opset1">
			<data strides="1, 1" dilations="1, 1" pads_begin="0, 0" pads_end="0, 0" auto_pad="same_upper"/>
			<input>
				<port id="0" precision="FP32">
					<dim>1</dim>
					<dim>20</dim>
					<dim>1</dim>
					<dim>1</dim>
				</port>
				<port id="1" precision="FP32">
					<dim>480</dim>
					<dim>20</dim>
					<dim>1</dim>
					<dim>1</dim>
				</port>
			</input>
			<output>
				<port id="2" precision="FP32" names="StatefulPartitionedCall/EfficientDet-D0/functional_1/stack_3/block_1/se_expand_conv2d/Conv2D:0">
					<dim>1</dim>
					<dim>480</dim>
					<dim>1</dim>
					<dim>1</dim>
				</port>
			</output>
		</layer>
		<layer id="222" name="StatefulPartitionedCall/EfficientDet-D0/functional_1/stack_3/block_1/se_expand_conv2d/BiasAdd/ReadVariableOp" type="Const" version="opset1">
			<data element_type="f32" shape="1, 480, 1, 1" offset="665712" size="1920"/>
			<output>
				<port id="0" precision="FP32" names="StatefulPartitionedCall/EfficientDet-D0/functional_1/stack_3/block_1/se_expand_conv2d/BiasAdd/ReadVariableOp:0">
					<dim>1</dim>
					<dim>480</dim>
					<dim>1</dim>
					<dim>1</dim>
				</port>
			</output>
		</layer>
		<layer id="223" name="StatefulPartitionedCall/EfficientDet-D0/functional_1/stack_3/block_1/se_expand_conv2d/BiasAdd/Add" type="Add" version="opset1">
			<data auto_broadcast="numpy"/>
			<input>
				<port id="0" precision="FP32">
					<dim>1</dim>
					<dim>480</dim>
					<dim>1</dim>
					<dim>1</dim>
				</port>
				<port id="1" precision="FP32">
					<dim>1</dim>
					<dim>480</dim>
					<dim>1</dim>
					<dim>1</dim>
				</port>
			</input>
			<output>
				<port id="2" precision="FP32" names="StatefulPartitionedCall/EfficientDet-D0/functional_1/stack_3/block_1/se_expand_conv2d/BiasAdd:0">
					<dim>1</dim>
					<dim>480</dim>
					<dim>1</dim>
					<dim>1</dim>
				</port>
			</output>
		</layer>
		<layer id="224" name="StatefulPartitionedCall/EfficientDet-D0/functional_1/stack_3/block_1/se_expand_activation/Sigmoid" type="Sigmoid" version="opset1">
			<input>
				<port id="0" precision="FP32">
					<dim>1</dim>
					<dim>480</dim>
					<dim>1</dim>
					<dim>1</dim>
				</port>
			</input>
			<output>
				<port id="1" precision="FP32" names="StatefulPartitionedCall/EfficientDet-D0/functional_1/stack_3/block_1/se_expand_activation/Sigmoid:0">
					<dim>1</dim>
					<dim>480</dim>
					<dim>1</dim>
					<dim>1</dim>
				</port>
			</output>
		</layer>
		<layer id="225" name="StatefulPartitionedCall/EfficientDet-D0/functional_1/stack_3/block_1/se_excite/mul" type="Multiply" version="opset1">
			<data auto_broadcast="numpy"/>
			<input>
				<port id="0" precision="FP32">
					<dim>1</dim>
					<dim>480</dim>
					<dim>32</dim>
					<dim>32</dim>
				</port>
				<port id="1" precision="FP32">
					<dim>1</dim>
					<dim>480</dim>
					<dim>1</dim>
					<dim>1</dim>
				</port>
			</input>
			<output>
				<port id="2" precision="FP32" names="StatefulPartitionedCall/EfficientDet-D0/functional_1/stack_3/block_1/se_excite/mul:0">
					<dim>1</dim>
					<dim>480</dim>
					<dim>32</dim>
					<dim>32</dim>
				</port>
			</output>
		</layer>
		<layer id="226" name="StatefulPartitionedCall/EfficientDet-D0/functional_1/stack_3/block_1/project_bn/FusedBatchNormV3/mean/Fused_Mul__copy" type="Const" version="opset1">
			<data element_type="f32" shape="80, 480, 1, 1" offset="667632" size="153600"/>
			<output>
				<port id="0" precision="FP32" names="StatefulPartitionedCall/EfficientDet-D0/functional_1/stack_3/block_1/project_conv2d/Conv2D/ReadVariableOp:0">
					<dim>80</dim>
					<dim>480</dim>
					<dim>1</dim>
					<dim>1</dim>
				</port>
			</output>
		</layer>
		<layer id="227" name="StatefulPartitionedCall/EfficientDet-D0/functional_1/stack_3/block_1/project_conv2d/Conv2D" type="Convolution" version="opset1">
			<data strides="1, 1" dilations="1, 1" pads_begin="0, 0" pads_end="0, 0" auto_pad="same_upper"/>
			<input>
				<port id="0" precision="FP32">
					<dim>1</dim>
					<dim>480</dim>
					<dim>32</dim>
					<dim>32</dim>
				</port>
				<port id="1" precision="FP32">
					<dim>80</dim>
					<dim>480</dim>
					<dim>1</dim>
					<dim>1</dim>
				</port>
			</input>
			<output>
				<port id="2" precision="FP32">
					<dim>1</dim>
					<dim>80</dim>
					<dim>32</dim>
					<dim>32</dim>
				</port>
			</output>
		</layer>
		<layer id="228" name="data_add_4668646691" type="Const" version="opset1">
			<data element_type="f32" shape="1, 80, 1, 1" offset="821232" size="320"/>
			<output>
				<port id="0" precision="FP32">
					<dim>1</dim>
					<dim>80</dim>
					<dim>1</dim>
					<dim>1</dim>
				</port>
			</output>
		</layer>
		<layer id="229" name="StatefulPartitionedCall/EfficientDet-D0/functional_1/stack_3/block_1/project_bn/FusedBatchNormV3/variance/Fused_Add_" type="Add" version="opset1">
			<data auto_broadcast="numpy"/>
			<input>
				<port id="0" precision="FP32">
					<dim>1</dim>
					<dim>80</dim>
					<dim>32</dim>
					<dim>32</dim>
				</port>
				<port id="1" precision="FP32">
					<dim>1</dim>
					<dim>80</dim>
					<dim>1</dim>
					<dim>1</dim>
				</port>
			</input>
			<output>
				<port id="2" precision="FP32" names="StatefulPartitionedCall/EfficientDet-D0/functional_1/stack_3/block_1/drop/Identity:0,StatefulPartitionedCall/EfficientDet-D0/functional_1/stack_3/block_1/id/Identity:0,StatefulPartitionedCall/EfficientDet-D0/functional_1/stack_3/block_1/project_bn/FusedBatchNormV3:0">
					<dim>1</dim>
					<dim>80</dim>
					<dim>32</dim>
					<dim>32</dim>
				</port>
			</output>
		</layer>
		<layer id="230" name="StatefulPartitionedCall/EfficientDet-D0/functional_1/stack_3/block_1/add/add" type="Add" version="opset1">
			<data auto_broadcast="numpy"/>
			<input>
				<port id="0" precision="FP32">
					<dim>1</dim>
					<dim>80</dim>
					<dim>32</dim>
					<dim>32</dim>
				</port>
				<port id="1" precision="FP32">
					<dim>1</dim>
					<dim>80</dim>
					<dim>32</dim>
					<dim>32</dim>
				</port>
			</input>
			<output>
				<port id="2" precision="FP32" names="StatefulPartitionedCall/EfficientDet-D0/functional_1/stack_3/block_1/add/add:0">
					<dim>1</dim>
					<dim>80</dim>
					<dim>32</dim>
					<dim>32</dim>
				</port>
			</output>
		</layer>
		<layer id="231" name="StatefulPartitionedCall/EfficientDet-D0/functional_1/stack_3/block_2/expand_bn/FusedBatchNormV3/mean/Fused_Mul__copy" type="Const" version="opset1">
			<data element_type="f32" shape="480, 80, 1, 1" offset="821552" size="153600"/>
			<output>
				<port id="0" precision="FP32" names="StatefulPartitionedCall/EfficientDet-D0/functional_1/stack_3/block_2/expand_conv2d/Conv2D/ReadVariableOp:0">
					<dim>480</dim>
					<dim>80</dim>
					<dim>1</dim>
					<dim>1</dim>
				</port>
			</output>
		</layer>
		<layer id="232" name="StatefulPartitionedCall/EfficientDet-D0/functional_1/stack_3/block_2/expand_conv2d/Conv2D" type="Convolution" version="opset1">
			<data strides="1, 1" dilations="1, 1" pads_begin="0, 0" pads_end="0, 0" auto_pad="same_upper"/>
			<input>
				<port id="0" precision="FP32">
					<dim>1</dim>
					<dim>80</dim>
					<dim>32</dim>
					<dim>32</dim>
				</port>
				<port id="1" precision="FP32">
					<dim>480</dim>
					<dim>80</dim>
					<dim>1</dim>
					<dim>1</dim>
				</port>
			</input>
			<output>
				<port id="2" precision="FP32">
					<dim>1</dim>
					<dim>480</dim>
					<dim>32</dim>
					<dim>32</dim>
				</port>
			</output>
		</layer>
		<layer id="233" name="data_add_4669446699" type="Const" version="opset1">
			<data element_type="f32" shape="1, 480, 1, 1" offset="975152" size="1920"/>
			<output>
				<port id="0" precision="FP32">
					<dim>1</dim>
					<dim>480</dim>
					<dim>1</dim>
					<dim>1</dim>
				</port>
			</output>
		</layer>
		<layer id="234" name="StatefulPartitionedCall/EfficientDet-D0/functional_1/stack_3/block_2/expand_bn/FusedBatchNormV3/variance/Fused_Add_" type="Add" version="opset1">
			<data auto_broadcast="numpy"/>
			<input>
				<port id="0" precision="FP32">
					<dim>1</dim>
					<dim>480</dim>
					<dim>32</dim>
					<dim>32</dim>
				</port>
				<port id="1" precision="FP32">
					<dim>1</dim>
					<dim>480</dim>
					<dim>1</dim>
					<dim>1</dim>
				</port>
			</input>
			<output>
				<port id="2" precision="FP32" names="StatefulPartitionedCall/EfficientDet-D0/functional_1/stack_3/block_2/expand_bn/FusedBatchNormV3:0">
					<dim>1</dim>
					<dim>480</dim>
					<dim>32</dim>
					<dim>32</dim>
				</port>
			</output>
		</layer>
		<layer id="235" name="StatefulPartitionedCall/EfficientDet-D0/functional_1/stack_3/block_2/expand_activation/mul" type="Swish" version="opset4">
			<input>
				<port id="0" precision="FP32">
					<dim>1</dim>
					<dim>480</dim>
					<dim>32</dim>
					<dim>32</dim>
				</port>
			</input>
			<output>
				<port id="1" precision="FP32" names="StatefulPartitionedCall/EfficientDet-D0/functional_1/stack_3/block_2/expand_activation/mul:0">
					<dim>1</dim>
					<dim>480</dim>
					<dim>32</dim>
					<dim>32</dim>
				</port>
			</output>
		</layer>
		<layer id="236" name="StatefulPartitionedCall/EfficientDet-D0/functional_1/stack_3/block_2/depthwise_bn/FusedBatchNormV3/mean/Fused_Mul__copy" type="Const" version="opset1">
			<data element_type="f32" shape="480, 1, 1, 3, 3" offset="977072" size="17280"/>
			<output>
				<port id="0" precision="FP32" names="StatefulPartitionedCall/EfficientDet-D0/functional_1/stack_3/block_2/depthwise_conv2d/depthwise/ReadVariableOp:0">
					<dim>480</dim>
					<dim>1</dim>
					<dim>1</dim>
					<dim>3</dim>
					<dim>3</dim>
				</port>
			</output>
		</layer>
		<layer id="237" name="StatefulPartitionedCall/EfficientDet-D0/functional_1/stack_3/block_2/depthwise_conv2d/depthwise" type="GroupConvolution" version="opset1">
			<data strides="1, 1" pads_begin="1, 1" pads_end="1, 1" dilations="1, 1" auto_pad="same_upper"/>
			<input>
				<port id="0" precision="FP32">
					<dim>1</dim>
					<dim>480</dim>
					<dim>32</dim>
					<dim>32</dim>
				</port>
				<port id="1" precision="FP32">
					<dim>480</dim>
					<dim>1</dim>
					<dim>1</dim>
					<dim>3</dim>
					<dim>3</dim>
				</port>
			</input>
			<output>
				<port id="2" precision="FP32">
					<dim>1</dim>
					<dim>480</dim>
					<dim>32</dim>
					<dim>32</dim>
				</port>
			</output>
		</layer>
		<layer id="238" name="data_add_4670246707" type="Const" version="opset1">
			<data element_type="f32" shape="1, 480, 1, 1" offset="994352" size="1920"/>
			<output>
				<port id="0" precision="FP32">
					<dim>1</dim>
					<dim>480</dim>
					<dim>1</dim>
					<dim>1</dim>
				</port>
			</output>
		</layer>
		<layer id="239" name="StatefulPartitionedCall/EfficientDet-D0/functional_1/stack_3/block_2/depthwise_bn/FusedBatchNormV3/variance/Fused_Add_" type="Add" version="opset1">
			<data auto_broadcast="numpy"/>
			<input>
				<port id="0" precision="FP32">
					<dim>1</dim>
					<dim>480</dim>
					<dim>32</dim>
					<dim>32</dim>
				</port>
				<port id="1" precision="FP32">
					<dim>1</dim>
					<dim>480</dim>
					<dim>1</dim>
					<dim>1</dim>
				</port>
			</input>
			<output>
				<port id="2" precision="FP32" names="StatefulPartitionedCall/EfficientDet-D0/functional_1/stack_3/block_2/depthwise_bn/FusedBatchNormV3:0">
					<dim>1</dim>
					<dim>480</dim>
					<dim>32</dim>
					<dim>32</dim>
				</port>
			</output>
		</layer>
		<layer id="240" name="StatefulPartitionedCall/EfficientDet-D0/functional_1/stack_3/block_2/depthwise_activation/mul" type="Swish" version="opset4">
			<input>
				<port id="0" precision="FP32">
					<dim>1</dim>
					<dim>480</dim>
					<dim>32</dim>
					<dim>32</dim>
				</port>
			</input>
			<output>
				<port id="1" precision="FP32">
					<dim>1</dim>
					<dim>480</dim>
					<dim>32</dim>
					<dim>32</dim>
				</port>
			</output>
		</layer>
		<layer id="241" name="StatefulPartitionedCall/EfficientDet-D0/functional_1/stack_3/block_2/se_squeeze/MeanGather6512282094" type="Const" version="opset1">
			<data element_type="i64" shape="2" offset="4888" size="16"/>
			<output>
				<port id="0" precision="I64">
					<dim>2</dim>
				</port>
			</output>
		</layer>
		<layer id="242" name="StatefulPartitionedCall/EfficientDet-D0/functional_1/stack_3/block_2/se_squeeze/Mean" type="ReduceMean" version="opset1">
			<data keep_dims="false"/>
			<input>
				<port id="0" precision="FP32">
					<dim>1</dim>
					<dim>480</dim>
					<dim>32</dim>
					<dim>32</dim>
				</port>
				<port id="1" precision="I64">
					<dim>2</dim>
				</port>
			</input>
			<output>
				<port id="2" precision="FP32" names="StatefulPartitionedCall/EfficientDet-D0/functional_1/stack_3/block_2/se_squeeze/Mean:0">
					<dim>1</dim>
					<dim>480</dim>
				</port>
			</output>
		</layer>
		<layer id="243" name="StatefulPartitionedCall/EfficientDet-D0/functional_1/stack_3/block_2/se_reshape/Reshape/shape" type="Const" version="opset1">
			<data element_type="i64" shape="4" offset="588800" size="32"/>
			<output>
				<port id="0" precision="I64" names="StatefulPartitionedCall/EfficientDet-D0/functional_1/stack_3/block_2/se_reshape/Reshape/shape:0">
					<dim>4</dim>
				</port>
			</output>
		</layer>
		<layer id="244" name="StatefulPartitionedCall/EfficientDet-D0/functional_1/stack_3/block_2/se_reshape/Reshape" type="Reshape" version="opset1">
			<data special_zero="false"/>
			<input>
				<port id="0" precision="FP32">
					<dim>1</dim>
					<dim>480</dim>
				</port>
				<port id="1" precision="I64">
					<dim>4</dim>
				</port>
			</input>
			<output>
				<port id="2" precision="FP32">
					<dim>1</dim>
					<dim>1</dim>
					<dim>1</dim>
					<dim>480</dim>
				</port>
			</output>
		</layer>
		<layer id="245" name="StatefulPartitionedCall/EfficientDet-D0/functional_1/stack_3/block_2/se_reshape/Reshape/Transpose/value5647582808" type="Const" version="opset1">
			<data element_type="i64" shape="4" offset="4936" size="32"/>
			<output>
				<port id="0" precision="I64">
					<dim>4</dim>
				</port>
			</output>
		</layer>
		<layer id="246" name="StatefulPartitionedCall/EfficientDet-D0/functional_1/stack_3/block_2/se_reshape/Reshape/Transpose" type="Transpose" version="opset1">
			<input>
				<port id="0" precision="FP32">
					<dim>1</dim>
					<dim>1</dim>
					<dim>1</dim>
					<dim>480</dim>
				</port>
				<port id="1" precision="I64">
					<dim>4</dim>
				</port>
			</input>
			<output>
				<port id="2" precision="FP32" names="StatefulPartitionedCall/EfficientDet-D0/functional_1/stack_3/block_2/se_reshape/Reshape:0">
					<dim>1</dim>
					<dim>480</dim>
					<dim>1</dim>
					<dim>1</dim>
				</port>
			</output>
		</layer>
		<layer id="247" name="StatefulPartitionedCall/EfficientDet-D0/functional_1/stack_3/block_2/se_reduce_conv2d/Conv2D/ReadVariableOp" type="Const" version="opset1">
			<data element_type="f32" shape="20, 480, 1, 1" offset="996272" size="38400"/>
			<output>
				<port id="0" precision="FP32" names="StatefulPartitionedCall/EfficientDet-D0/functional_1/stack_3/block_2/se_reduce_conv2d/Conv2D/ReadVariableOp:0">
					<dim>20</dim>
					<dim>480</dim>
					<dim>1</dim>
					<dim>1</dim>
				</port>
			</output>
		</layer>
		<layer id="248" name="StatefulPartitionedCall/EfficientDet-D0/functional_1/stack_3/block_2/se_reduce_conv2d/Conv2D" type="Convolution" version="opset1">
			<data strides="1, 1" dilations="1, 1" pads_begin="0, 0" pads_end="0, 0" auto_pad="same_upper"/>
			<input>
				<port id="0" precision="FP32">
					<dim>1</dim>
					<dim>480</dim>
					<dim>1</dim>
					<dim>1</dim>
				</port>
				<port id="1" precision="FP32">
					<dim>20</dim>
					<dim>480</dim>
					<dim>1</dim>
					<dim>1</dim>
				</port>
			</input>
			<output>
				<port id="2" precision="FP32" names="StatefulPartitionedCall/EfficientDet-D0/functional_1/stack_3/block_2/se_reduce_conv2d/Conv2D:0">
					<dim>1</dim>
					<dim>20</dim>
					<dim>1</dim>
					<dim>1</dim>
				</port>
			</output>
		</layer>
		<layer id="249" name="StatefulPartitionedCall/EfficientDet-D0/functional_1/stack_3/block_2/se_reduce_conv2d/BiasAdd/ReadVariableOp" type="Const" version="opset1">
			<data element_type="f32" shape="1, 20, 1, 1" offset="1034672" size="80"/>
			<output>
				<port id="0" precision="FP32" names="StatefulPartitionedCall/EfficientDet-D0/functional_1/stack_3/block_2/se_reduce_conv2d/BiasAdd/ReadVariableOp:0">
					<dim>1</dim>
					<dim>20</dim>
					<dim>1</dim>
					<dim>1</dim>
				</port>
			</output>
		</layer>
		<layer id="250" name="StatefulPartitionedCall/EfficientDet-D0/functional_1/stack_3/block_2/se_reduce_conv2d/BiasAdd/Add" type="Add" version="opset1">
			<data auto_broadcast="numpy"/>
			<input>
				<port id="0" precision="FP32">
					<dim>1</dim>
					<dim>20</dim>
					<dim>1</dim>
					<dim>1</dim>
				</port>
				<port id="1" precision="FP32">
					<dim>1</dim>
					<dim>20</dim>
					<dim>1</dim>
					<dim>1</dim>
				</port>
			</input>
			<output>
				<port id="2" precision="FP32" names="StatefulPartitionedCall/EfficientDet-D0/functional_1/stack_3/block_2/se_reduce_conv2d/BiasAdd:0">
					<dim>1</dim>
					<dim>20</dim>
					<dim>1</dim>
					<dim>1</dim>
				</port>
			</output>
		</layer>
		<layer id="251" name="StatefulPartitionedCall/EfficientDet-D0/functional_1/stack_3/block_2/se_reduce_activation/mul" type="Swish" version="opset4">
			<input>
				<port id="0" precision="FP32">
					<dim>1</dim>
					<dim>20</dim>
					<dim>1</dim>
					<dim>1</dim>
				</port>
			</input>
			<output>
				<port id="1" precision="FP32" names="StatefulPartitionedCall/EfficientDet-D0/functional_1/stack_3/block_2/se_reduce_activation/mul:0">
					<dim>1</dim>
					<dim>20</dim>
					<dim>1</dim>
					<dim>1</dim>
				</port>
			</output>
		</layer>
		<layer id="252" name="StatefulPartitionedCall/EfficientDet-D0/functional_1/stack_3/block_2/se_expand_conv2d/Conv2D/ReadVariableOp" type="Const" version="opset1">
			<data element_type="f32" shape="480, 20, 1, 1" offset="1034752" size="38400"/>
			<output>
				<port id="0" precision="FP32" names="StatefulPartitionedCall/EfficientDet-D0/functional_1/stack_3/block_2/se_expand_conv2d/Conv2D/ReadVariableOp:0">
					<dim>480</dim>
					<dim>20</dim>
					<dim>1</dim>
					<dim>1</dim>
				</port>
			</output>
		</layer>
		<layer id="253" name="StatefulPartitionedCall/EfficientDet-D0/functional_1/stack_3/block_2/se_expand_conv2d/Conv2D" type="Convolution" version="opset1">
			<data strides="1, 1" dilations="1, 1" pads_begin="0, 0" pads_end="0, 0" auto_pad="same_upper"/>
			<input>
				<port id="0" precision="FP32">
					<dim>1</dim>
					<dim>20</dim>
					<dim>1</dim>
					<dim>1</dim>
				</port>
				<port id="1" precision="FP32">
					<dim>480</dim>
					<dim>20</dim>
					<dim>1</dim>
					<dim>1</dim>
				</port>
			</input>
			<output>
				<port id="2" precision="FP32" names="StatefulPartitionedCall/EfficientDet-D0/functional_1/stack_3/block_2/se_expand_conv2d/Conv2D:0">
					<dim>1</dim>
					<dim>480</dim>
					<dim>1</dim>
					<dim>1</dim>
				</port>
			</output>
		</layer>
		<layer id="254" name="StatefulPartitionedCall/EfficientDet-D0/functional_1/stack_3/block_2/se_expand_conv2d/BiasAdd/ReadVariableOp" type="Const" version="opset1">
			<data element_type="f32" shape="1, 480, 1, 1" offset="1073152" size="1920"/>
			<output>
				<port id="0" precision="FP32" names="StatefulPartitionedCall/EfficientDet-D0/functional_1/stack_3/block_2/se_expand_conv2d/BiasAdd/ReadVariableOp:0">
					<dim>1</dim>
					<dim>480</dim>
					<dim>1</dim>
					<dim>1</dim>
				</port>
			</output>
		</layer>
		<layer id="255" name="StatefulPartitionedCall/EfficientDet-D0/functional_1/stack_3/block_2/se_expand_conv2d/BiasAdd/Add" type="Add" version="opset1">
			<data auto_broadcast="numpy"/>
			<input>
				<port id="0" precision="FP32">
					<dim>1</dim>
					<dim>480</dim>
					<dim>1</dim>
					<dim>1</dim>
				</port>
				<port id="1" precision="FP32">
					<dim>1</dim>
					<dim>480</dim>
					<dim>1</dim>
					<dim>1</dim>
				</port>
			</input>
			<output>
				<port id="2" precision="FP32" names="StatefulPartitionedCall/EfficientDet-D0/functional_1/stack_3/block_2/se_expand_conv2d/BiasAdd:0">
					<dim>1</dim>
					<dim>480</dim>
					<dim>1</dim>
					<dim>1</dim>
				</port>
			</output>
		</layer>
		<layer id="256" name="StatefulPartitionedCall/EfficientDet-D0/functional_1/stack_3/block_2/se_expand_activation/Sigmoid" type="Sigmoid" version="opset1">
			<input>
				<port id="0" precision="FP32">
					<dim>1</dim>
					<dim>480</dim>
					<dim>1</dim>
					<dim>1</dim>
				</port>
			</input>
			<output>
				<port id="1" precision="FP32" names="StatefulPartitionedCall/EfficientDet-D0/functional_1/stack_3/block_2/se_expand_activation/Sigmoid:0">
					<dim>1</dim>
					<dim>480</dim>
					<dim>1</dim>
					<dim>1</dim>
				</port>
			</output>
		</layer>
		<layer id="257" name="StatefulPartitionedCall/EfficientDet-D0/functional_1/stack_3/block_2/se_excite/mul" type="Multiply" version="opset1">
			<data auto_broadcast="numpy"/>
			<input>
				<port id="0" precision="FP32">
					<dim>1</dim>
					<dim>480</dim>
					<dim>32</dim>
					<dim>32</dim>
				</port>
				<port id="1" precision="FP32">
					<dim>1</dim>
					<dim>480</dim>
					<dim>1</dim>
					<dim>1</dim>
				</port>
			</input>
			<output>
				<port id="2" precision="FP32" names="StatefulPartitionedCall/EfficientDet-D0/functional_1/stack_3/block_2/se_excite/mul:0">
					<dim>1</dim>
					<dim>480</dim>
					<dim>32</dim>
					<dim>32</dim>
				</port>
			</output>
		</layer>
		<layer id="258" name="StatefulPartitionedCall/EfficientDet-D0/functional_1/stack_3/block_2/project_bn/FusedBatchNormV3/mean/Fused_Mul__copy" type="Const" version="opset1">
			<data element_type="f32" shape="80, 480, 1, 1" offset="1075072" size="153600"/>
			<output>
				<port id="0" precision="FP32" names="StatefulPartitionedCall/EfficientDet-D0/functional_1/stack_3/block_2/project_conv2d/Conv2D/ReadVariableOp:0">
					<dim>80</dim>
					<dim>480</dim>
					<dim>1</dim>
					<dim>1</dim>
				</port>
			</output>
		</layer>
		<layer id="259" name="StatefulPartitionedCall/EfficientDet-D0/functional_1/stack_3/block_2/project_conv2d/Conv2D" type="Convolution" version="opset1">
			<data strides="1, 1" dilations="1, 1" pads_begin="0, 0" pads_end="0, 0" auto_pad="same_upper"/>
			<input>
				<port id="0" precision="FP32">
					<dim>1</dim>
					<dim>480</dim>
					<dim>32</dim>
					<dim>32</dim>
				</port>
				<port id="1" precision="FP32">
					<dim>80</dim>
					<dim>480</dim>
					<dim>1</dim>
					<dim>1</dim>
				</port>
			</input>
			<output>
				<port id="2" precision="FP32">
					<dim>1</dim>
					<dim>80</dim>
					<dim>32</dim>
					<dim>32</dim>
				</port>
			</output>
		</layer>
		<layer id="260" name="data_add_4671046715" type="Const" version="opset1">
			<data element_type="f32" shape="1, 80, 1, 1" offset="1228672" size="320"/>
			<output>
				<port id="0" precision="FP32">
					<dim>1</dim>
					<dim>80</dim>
					<dim>1</dim>
					<dim>1</dim>
				</port>
			</output>
		</layer>
		<layer id="261" name="StatefulPartitionedCall/EfficientDet-D0/functional_1/stack_3/block_2/project_bn/FusedBatchNormV3/variance/Fused_Add_" type="Add" version="opset1">
			<data auto_broadcast="numpy"/>
			<input>
				<port id="0" precision="FP32">
					<dim>1</dim>
					<dim>80</dim>
					<dim>32</dim>
					<dim>32</dim>
				</port>
				<port id="1" precision="FP32">
					<dim>1</dim>
					<dim>80</dim>
					<dim>1</dim>
					<dim>1</dim>
				</port>
			</input>
			<output>
				<port id="2" precision="FP32" names="StatefulPartitionedCall/EfficientDet-D0/functional_1/stack_3/block_2/drop/Identity:0,StatefulPartitionedCall/EfficientDet-D0/functional_1/stack_3/block_2/id/Identity:0,StatefulPartitionedCall/EfficientDet-D0/functional_1/stack_3/block_2/project_bn/FusedBatchNormV3:0">
					<dim>1</dim>
					<dim>80</dim>
					<dim>32</dim>
					<dim>32</dim>
				</port>
			</output>
		</layer>
		<layer id="262" name="StatefulPartitionedCall/EfficientDet-D0/functional_1/stack_3/block_2/add/add" type="Add" version="opset1">
			<data auto_broadcast="numpy"/>
			<input>
				<port id="0" precision="FP32">
					<dim>1</dim>
					<dim>80</dim>
					<dim>32</dim>
					<dim>32</dim>
				</port>
				<port id="1" precision="FP32">
					<dim>1</dim>
					<dim>80</dim>
					<dim>32</dim>
					<dim>32</dim>
				</port>
			</input>
			<output>
				<port id="2" precision="FP32" names="StatefulPartitionedCall/EfficientDet-D0/functional_1/stack_3/block_2/add/add:0">
					<dim>1</dim>
					<dim>80</dim>
					<dim>32</dim>
					<dim>32</dim>
				</port>
			</output>
		</layer>
		<layer id="263" name="StatefulPartitionedCall/EfficientDet-D0/functional_1/stack_4/block_0/expand_bn/FusedBatchNormV3/mean/Fused_Mul__copy" type="Const" version="opset1">
			<data element_type="f32" shape="480, 80, 1, 1" offset="1228992" size="153600"/>
			<output>
				<port id="0" precision="FP32" names="StatefulPartitionedCall/EfficientDet-D0/functional_1/stack_4/block_0/expand_conv2d/Conv2D/ReadVariableOp:0">
					<dim>480</dim>
					<dim>80</dim>
					<dim>1</dim>
					<dim>1</dim>
				</port>
			</output>
		</layer>
		<layer id="264" name="StatefulPartitionedCall/EfficientDet-D0/functional_1/stack_4/block_0/expand_conv2d/Conv2D" type="Convolution" version="opset1">
			<data strides="1, 1" dilations="1, 1" pads_begin="0, 0" pads_end="0, 0" auto_pad="same_upper"/>
			<input>
				<port id="0" precision="FP32">
					<dim>1</dim>
					<dim>80</dim>
					<dim>32</dim>
					<dim>32</dim>
				</port>
				<port id="1" precision="FP32">
					<dim>480</dim>
					<dim>80</dim>
					<dim>1</dim>
					<dim>1</dim>
				</port>
			</input>
			<output>
				<port id="2" precision="FP32">
					<dim>1</dim>
					<dim>480</dim>
…
		<edge from-layer="992" from-port="0" to-layer="993" to-port="1"/>
		<edge from-layer="993" from-port="2" to-layer="995" to-port="0"/>
		<edge from-layer="993" from-port="2" to-layer="1000" to-port="0"/>
		<edge from-layer="994" from-port="0" to-layer="995" to-port="1"/>
		<edge from-layer="995" from-port="2" to-layer="1248" to-port="0"/>
		<edge from-layer="996" from-port="0" to-layer="997" to-port="1"/>
		<edge from-layer="997" from-port="2" to-layer="1003" to-port="0"/>
		<edge from-layer="998" from-port="0" to-layer="999" to-port="1"/>
		<edge from-layer="999" from-port="2" to-layer="1003" to-port="1"/>
		<edge from-layer="1000" from-port="1" to-layer="1002" to-port="0"/>
		<edge from-layer="1001" from-port="0" to-layer="1002" to-port="1"/>
		<edge from-layer="1002" from-port="2" to-layer="1003" to-port="2"/>
		<edge from-layer="1003" from-port="3" to-layer="1005" to-port="0"/>
		<edge from-layer="1004" from-port="0" to-layer="1005" to-port="1"/>
		<edge from-layer="1005" from-port="2" to-layer="1007" to-port="0"/>
		<edge from-layer="1006" from-port="0" to-layer="1007" to-port="1"/>
		<edge from-layer="1007" from-port="2" to-layer="1008" to-port="0"/>
		<edge from-layer="1008" from-port="1" to-layer="1010" to-port="0"/>
		<edge from-layer="1009" from-port="0" to-layer="1010" to-port="1"/>
		<edge from-layer="1010" from-port="2" to-layer="1012" to-port="0"/>
		<edge from-layer="1011" from-port="0" to-layer="1012" to-port="1"/>
		<edge from-layer="1012" from-port="2" to-layer="1014" to-port="0"/>
		<edge from-layer="1013" from-port="0" to-layer="1014" to-port="1"/>
		<edge from-layer="1014" from-port="2" to-layer="1021" to-port="0"/>
		<edge from-layer="1014" from-port="2" to-layer="1016" to-port="0"/>
		<edge from-layer="1014" from-port="2" to-layer="1292" to-port="0"/>
		<edge from-layer="1015" from-port="0" to-layer="1016" to-port="1"/>
		<edge from-layer="1016" from-port="2" to-layer="1202" to-port="0"/>
		<edge from-layer="1017" from-port="0" to-layer="1018" to-port="1"/>
		<edge from-layer="1018" from-port="2" to-layer="1024" to-port="0"/>
		<edge from-layer="1019" from-port="0" to-layer="1020" to-port="1"/>
		<edge from-layer="1020" from-port="2" to-layer="1024" to-port="1"/>
		<edge from-layer="1021" from-port="1" to-layer="1023" to-port="0"/>
		<edge from-layer="1022" from-port="0" to-layer="1023" to-port="1"/>
		<edge from-layer="1023" from-port="2" to-layer="1024" to-port="2"/>
		<edge from-layer="1024" from-port="3" to-layer="1026" to-port="0"/>
		<edge from-layer="1025" from-port="0" to-layer="1026" to-port="1"/>
		<edge from-layer="1026" from-port="2" to-layer="1028" to-port="0"/>
		<edge from-layer="1027" from-port="0" to-layer="1028" to-port="1"/>
		<edge from-layer="1028" from-port="2" to-layer="1029" to-port="0"/>
		<edge from-layer="1029" from-port="1" to-layer="1031" to-port="0"/>
		<edge from-layer="1030" from-port="0" to-layer="1031" to-port="1"/>
		<edge from-layer="1031" from-port="2" to-layer="1033" to-port="0"/>
		<edge from-layer="1032" from-port="0" to-layer="1033" to-port="1"/>
		<edge from-layer="1033" from-port="2" to-layer="1035" to-port="0"/>
		<edge from-layer="1034" from-port="0" to-layer="1035" to-port="1"/>
		<edge from-layer="1035" from-port="2" to-layer="1037" to-port="0"/>
		<edge from-layer="1035" from-port="2" to-layer="1342" to-port="0"/>
		<edge from-layer="1035" from-port="2" to-layer="1042" to-port="0"/>
		<edge from-layer="1036" from-port="0" to-layer="1037" to-port="1"/>
		<edge from-layer="1037" from-port="2" to-layer="1156" to-port="0"/>
		<edge from-layer="1038" from-port="0" to-layer="1039" to-port="1"/>
		<edge from-layer="1039" from-port="2" to-layer="1045" to-port="0"/>
		<edge from-layer="1040" from-port="0" to-layer="1041" to-port="1"/>
		<edge from-layer="1041" from-port="2" to-layer="1045" to-port="1"/>
		<edge from-layer="1042" from-port="1" to-layer="1044" to-port="0"/>
		<edge from-layer="1043" from-port="0" to-layer="1044" to-port="1"/>
		<edge from-layer="1044" from-port="2" to-layer="1045" to-port="2"/>
		<edge from-layer="1045" from-port="3" to-layer="1047" to-port="0"/>
		<edge from-layer="1046" from-port="0" to-layer="1047" to-port="1"/>
		<edge from-layer="1047" from-port="2" to-layer="1049" to-port="0"/>
		<edge from-layer="1048" from-port="0" to-layer="1049" to-port="1"/>
		<edge from-layer="1049" from-port="2" to-layer="1050" to-port="0"/>
		<edge from-layer="1050" from-port="1" to-layer="1052" to-port="0"/>
		<edge from-layer="1051" from-port="0" to-layer="1052" to-port="1"/>
		<edge from-layer="1052" from-port="2" to-layer="1054" to-port="0"/>
		<edge from-layer="1053" from-port="0" to-layer="1054" to-port="1"/>
		<edge from-layer="1054" from-port="2" to-layer="1056" to-port="0"/>
		<edge from-layer="1055" from-port="0" to-layer="1056" to-port="1"/>
		<edge from-layer="1056" from-port="2" to-layer="1058" to-port="0"/>
		<edge from-layer="1056" from-port="2" to-layer="1061" to-port="0"/>
		<edge from-layer="1056" from-port="2" to-layer="1392" to-port="0"/>
		<edge from-layer="1057" from-port="0" to-layer="1058" to-port="1"/>
		<edge from-layer="1058" from-port="2" to-layer="1110" to-port="0"/>
		<edge from-layer="1059" from-port="0" to-layer="1060" to-port="1"/>
		<edge from-layer="1060" from-port="2" to-layer="1064" to-port="0"/>
		<edge from-layer="1061" from-port="1" to-layer="1063" to-port="0"/>
		<edge from-layer="1062" from-port="0" to-layer="1063" to-port="1"/>
		<edge from-layer="1063" from-port="2" to-layer="1064" to-port="1"/>
		<edge from-layer="1064" from-port="2" to-layer="1066" to-port="0"/>
		<edge from-layer="1065" from-port="0" to-layer="1066" to-port="1"/>
		<edge from-layer="1066" from-port="2" to-layer="1068" to-port="0"/>
		<edge from-layer="1067" from-port="0" to-layer="1068" to-port="1"/>
		<edge from-layer="1068" from-port="2" to-layer="1069" to-port="0"/>
		<edge from-layer="1069" from-port="1" to-layer="1071" to-port="0"/>
		<edge from-layer="1070" from-port="0" to-layer="1071" to-port="1"/>
		<edge from-layer="1071" from-port="2" to-layer="1073" to-port="0"/>
		<edge from-layer="1072" from-port="0" to-layer="1073" to-port="1"/>
		<edge from-layer="1073" from-port="2" to-layer="1075" to-port="0"/>
		<edge from-layer="1074" from-port="0" to-layer="1075" to-port="1"/>
		<edge from-layer="1075" from-port="2" to-layer="1442" to-port="0"/>
		<edge from-layer="1075" from-port="2" to-layer="1083" to-port="0"/>
		<edge from-layer="1075" from-port="2" to-layer="1077" to-port="0"/>
		<edge from-layer="1076" from-port="0" to-layer="1077" to-port="1"/>
		<edge from-layer="1077" from-port="2" to-layer="1079" to-port="0"/>
		<edge from-layer="1078" from-port="0" to-layer="1079" to-port="1"/>
		<edge from-layer="1079" from-port="2" to-layer="1081" to-port="0"/>
		<edge from-layer="1080" from-port="0" to-layer="1081" to-port="1"/>
		<edge from-layer="1081" from-port="2" to-layer="1088" to-port="0"/>
		<edge from-layer="1082" from-port="0" to-layer="1083" to-port="1"/>
		<edge from-layer="1083" from-port="2" to-layer="1085" to-port="0"/>
		<edge from-layer="1084" from-port="0" to-layer="1085" to-port="1"/>
		<edge from-layer="1085" from-port="2" to-layer="1087" to-port="0"/>
		<edge from-layer="1086" from-port="0" to-layer="1087" to-port="1"/>
		<edge from-layer="1087" from-port="2" to-layer="1088" to-port="1"/>
		<edge from-layer="1088" from-port="2" to-layer="1096" to-port="0"/>
		<edge from-layer="1088" from-port="2" to-layer="1090" to-port="0"/>
		<edge from-layer="1089" from-port="0" to-layer="1090" to-port="1"/>
		<edge from-layer="1090" from-port="2" to-layer="1092" to-port="0"/>
		<edge from-layer="1091" from-port="0" to-layer="1092" to-port="1"/>
		<edge from-layer="1092" from-port="2" to-layer="1094" to-port="0"/>
		<edge from-layer="1093" from-port="0" to-layer="1094" to-port="1"/>
		<edge from-layer="1094" from-port="2" to-layer="1101" to-port="0"/>
		<edge from-layer="1095" from-port="0" to-layer="1096" to-port="1"/>
		<edge from-layer="1096" from-port="2" to-layer="1098" to-port="0"/>
		<edge from-layer="1097" from-port="0" to-layer="1098" to-port="1"/>
		<edge from-layer="1098" from-port="2" to-layer="1100" to-port="0"/>
		<edge from-layer="1099" from-port="0" to-layer="1100" to-port="1"/>
		<edge from-layer="1100" from-port="2" to-layer="1101" to-port="1"/>
		<edge from-layer="1101" from-port="2" to-layer="1103" to-port="0"/>
		<edge from-layer="1102" from-port="0" to-layer="1103" to-port="1"/>
		<edge from-layer="1103" from-port="2" to-layer="1105" to-port="0"/>
		<edge from-layer="1104" from-port="0" to-layer="1105" to-port="1"/>
		<edge from-layer="1105" from-port="2" to-layer="1107" to-port="0"/>
		<edge from-layer="1106" from-port="0" to-layer="1107" to-port="1"/>
		<edge from-layer="1107" from-port="2" to-layer="1109" to-port="0"/>
		<edge from-layer="1108" from-port="0" to-layer="1109" to-port="1"/>
		<edge from-layer="1109" from-port="2" to-layer="1110" to-port="1"/>
		<edge from-layer="1110" from-port="2" to-layer="1112" to-port="0"/>
		<edge from-layer="1111" from-port="0" to-layer="1112" to-port="1"/>
		<edge from-layer="1112" from-port="2" to-layer="1114" to-port="0"/>
		<edge from-layer="1113" from-port="0" to-layer="1114" to-port="1"/>
		<edge from-layer="1114" from-port="2" to-layer="1115" to-port="0"/>
		<edge from-layer="1115" from-port="1" to-layer="1117" to-port="0"/>
		<edge from-layer="1116" from-port="0" to-layer="1117" to-port="1"/>
		<edge from-layer="1117" from-port="2" to-layer="1119" to-port="0"/>
		<edge from-layer="1118" from-port="0" to-layer="1119" to-port="1"/>
		<edge from-layer="1119" from-port="2" to-layer="1121" to-port="0"/>
		<edge from-layer="1120" from-port="0" to-layer="1121" to-port="1"/>
		<edge from-layer="1121" from-port="2" to-layer="1394" to-port="0"/>
		<edge from-layer="1121" from-port="2" to-layer="1123" to-port="0"/>
		<edge from-layer="1121" from-port="2" to-layer="1129" to-port="0"/>
		<edge from-layer="1122" from-port="0" to-layer="1123" to-port="1"/>
		<edge from-layer="1123" from-port="2" to-layer="1125" to-port="0"/>
		<edge from-layer="1124" from-port="0" to-layer="1125" to-port="1"/>
		<edge from-layer="1125" from-port="2" to-layer="1127" to-port="0"/>
		<edge from-layer="1126" from-port="0" to-layer="1127" to-port="1"/>
		<edge from-layer="1127" from-port="2" to-layer="1134" to-port="0"/>
		<edge from-layer="1128" from-port="0" to-layer="1129" to-port="1"/>
		<edge from-layer="1129" from-port="2" to-layer="1131" to-port="0"/>
		<edge from-layer="1130" from-port="0" to-layer="1131" to-port="1"/>
		<edge from-layer="1131" from-port="2" to-layer="1133" to-port="0"/>
		<edge from-layer="1132" from-port="0" to-layer="1133" to-port="1"/>
		<edge from-layer="1133" from-port="2" to-layer="1134" to-port="1"/>
		<edge from-layer="1134" from-port="2" to-layer="1136" to-port="0"/>
		<edge from-layer="1134" from-port="2" to-layer="1142" to-port="0"/>
		<edge from-layer="1135" from-port="0" to-layer="1136" to-port="1"/>
		<edge from-layer="1136" from-port="2" to-layer="1138" to-port="0"/>
		<edge from-layer="1137" from-port="0" to-layer="1138" to-port="1"/>
		<edge from-layer="1138" from-port="2" to-layer="1140" to-port="0"/>
		<edge from-layer="1139" from-port="0" to-layer="1140" to-port="1"/>
		<edge from-layer="1140" from-port="2" to-layer="1147" to-port="0"/>
		<edge from-layer="1141" from-port="0" to-layer="1142" to-port="1"/>
		<edge from-layer="1142" from-port="2" to-layer="1144" to-port="0"/>
		<edge from-layer="1143" from-port="0" to-layer="1144" to-port="1"/>
		<edge from-layer="1144" from-port="2" to-layer="1146" to-port="0"/>
		<edge from-layer="1145" from-port="0" to-layer="1146" to-port="1"/>
		<edge from-layer="1146" from-port="2" to-layer="1147" to-port="1"/>
		<edge from-layer="1147" from-port="2" to-layer="1149" to-port="0"/>
		<edge from-layer="1148" from-port="0" to-layer="1149" to-port="1"/>
		<edge from-layer="1149" from-port="2" to-layer="1151" to-port="0"/>
		<edge from-layer="1150" from-port="0" to-layer="1151" to-port="1"/>
		<edge from-layer="1151" from-port="2" to-layer="1153" to-port="0"/>
		<edge from-layer="1152" from-port="0" to-layer="1153" to-port="1"/>
		<edge from-layer="1153" from-port="2" to-layer="1155" to-port="0"/>
		<edge from-layer="1154" from-port="0" to-layer="1155" to-port="1"/>
		<edge from-layer="1155" from-port="2" to-layer="1156" to-port="1"/>
		<edge from-layer="1156" from-port="2" to-layer="1158" to-port="0"/>
		<edge from-layer="1157" from-port="0" to-layer="1158" to-port="1"/>
		<edge from-layer="1158" from-port="2" to-layer="1160" to-port="0"/>
		<edge from-layer="1159" from-port="0" to-layer="1160" to-port="1"/>
		<edge from-layer="1160" from-port="2" to-layer="1161" to-port="0"/>
		<edge from-layer="1161" from-port="1" to-layer="1163" to-port="0"/>
		<edge from-layer="1162" from-port="0" to-layer="1163" to-port="1"/>
		<edge from-layer="1163" from-port="2" to-layer="1165" to-port="0"/>
		<edge from-layer="1164" from-port="0" to-layer="1165" to-port="1"/>
		<edge from-layer="1165" from-port="2" to-layer="1167" to-port="0"/>
		<edge from-layer="1166" from-port="0" to-layer="1167" to-port="1"/>
		<edge from-layer="1167" from-port="2" to-layer="1344" to-port="0"/>
		<edge from-layer="1167" from-port="2" to-layer="1169" to-port="0"/>
		<edge from-layer="1167" from-port="2" to-layer="1175" to-port="0"/>
		<edge from-layer="1168" from-port="0" to-layer="1169" to-port="1"/>
		<edge from-layer="1169" from-port="2" to-layer="1171" to-port="0"/>
		<edge from-layer="1170" from-port="0" to-layer="1171" to-port="1"/>
		<edge from-layer="1171" from-port="2" to-layer="1173" to-port="0"/>
		<edge from-layer="1172" from-port="0" to-layer="1173" to-port="1"/>
		<edge from-layer="1173" from-port="2" to-layer="1180" to-port="0"/>
		<edge from-layer="1174" from-port="0" to-layer="1175" to-port="1"/>
		<edge from-layer="1175" from-port="2" to-layer="1177" to-port="0"/>
		<edge from-layer="1176" from-port="0" to-layer="1177" to-port="1"/>
		<edge from-layer="1177" from-port="2" to-layer="1179" to-port="0"/>
		<edge from-layer="1178" from-port="0" to-layer="1179" to-port="1"/>
		<edge from-layer="1179" from-port="2" to-layer="1180" to-port="1"/>
		<edge from-layer="1180" from-port="2" to-layer="1188" to-port="0"/>
		<edge from-layer="1180" from-port="2" to-layer="1182" to-port="0"/>
		<edge from-layer="1181" from-port="0" to-layer="1182" to-port="1"/>
		<edge from-layer="1182" from-port="2" to-layer="1184" to-port="0"/>
		<edge from-layer="1183" from-port="0" to-layer="1184" to-port="1"/>
		<edge from-layer="1184" from-port="2" to-layer="1186" to-port="0"/>
		<edge from-layer="1185" from-port="0" to-layer="1186" to-port="1"/>
		<edge from-layer="1186" from-port="2" to-layer="1193" to-port="0"/>
		<edge from-layer="1187" from-port="0" to-layer="1188" to-port="1"/>
		<edge from-layer="1188" from-port="2" to-layer="1190" to-port="0"/>
		<edge from-layer="1189" from-port="0" to-layer="1190" to-port="1"/>
		<edge from-layer="1190" from-port="2" to-layer="1192" to-port="0"/>
		<edge from-layer="1191" from-port="0" to-layer="1192" to-port="1"/>
		<edge from-layer="1192" from-port="2" to-layer="1193" to-port="1"/>
		<edge from-layer="1193" from-port="2" to-layer="1195" to-port="0"/>
		<edge from-layer="1194" from-port="0" to-layer="1195" to-port="1"/>
		<edge from-layer="1195" from-port="2" to-layer="1197" to-port="0"/>
		<edge from-layer="1196" from-port="0" to-layer="1197" to-port="1"/>
		<edge from-layer="1197" from-port="2" to-layer="1199" to-port="0"/>
		<edge from-layer="1198" from-port="0" to-layer="1199" to-port="1"/>
		<edge from-layer="1199" from-port="2" to-layer="1201" to-port="0"/>
		<edge from-layer="1200" from-port="0" to-layer="1201" to-port="1"/>
		<edge from-layer="1201" from-port="2" to-layer="1202" to-port="1"/>
		<edge from-layer="1202" from-port="2" to-layer="1204" to-port="0"/>
		<edge from-layer="1203" from-port="0" to-layer="1204" to-port="1"/>
		<edge from-layer="1204" from-port="2" to-layer="1206" to-port="0"/>
		<edge from-layer="1205" from-port="0" to-layer="1206" to-port="1"/>
		<edge from-layer="1206" from-port="2" to-layer="1207" to-port="0"/>
		<edge from-layer="1207" from-port="1" to-layer="1209" to-port="0"/>
		<edge from-layer="1208" from-port="0" to-layer="1209" to-port="1"/>
		<edge from-layer="1209" from-port="2" to-layer="1211" to-port="0"/>
		<edge from-layer="1210" from-port="0" to-layer="1211" to-port="1"/>
		<edge from-layer="1211" from-port="2" to-layer="1213" to-port="0"/>
		<edge from-layer="1212" from-port="0" to-layer="1213" to-port="1"/>
		<edge from-layer="1213" from-port="2" to-layer="1215" to-port="0"/>
		<edge from-layer="1213" from-port="2" to-layer="1221" to-port="0"/>
		<edge from-layer="1213" from-port="2" to-layer="1294" to-port="0"/>
		<edge from-layer="1214" from-port="0" to-layer="1215" to-port="1"/>
		<edge from-layer="1215" from-port="2" to-layer="1217" to-port="0"/>
		<edge from-layer="1216" from-port="0" to-layer="1217" to-port="1"/>
		<edge from-layer="1217" from-port="2" to-layer="1219" to-port="0"/>
		<edge from-layer="1218" from-port="0" to-layer="1219" to-port="1"/>
		<edge from-layer="1219" from-port="2" to-layer="1226" to-port="0"/>
		<edge from-layer="1220" from-port="0" to-layer="1221" to-port="1"/>
		<edge from-layer="1221" from-port="2" to-layer="1223" to-port="0"/>
		<edge from-layer="1222" from-port="0" to-layer="1223" to-port="1"/>
		<edge from-layer="1223" from-port="2" to-layer="1225" to-port="0"/>
		<edge from-layer="1224" from-port="0" to-layer="1225" to-port="1"/>
		<edge from-layer="1225" from-port="2" to-layer="1226" to-port="1"/>
		<edge from-layer="1226" from-port="2" to-layer="1234" to-port="0"/>
		<edge from-layer="1226" from-port="2" to-layer="1228" to-port="0"/>
		<edge from-layer="1227" from-port="0" to-layer="1228" to-port="1"/>
		<edge from-layer="1228" from-port="2" to-layer="1230" to-port="0"/>
		<edge from-layer="1229" from-port="0" to-layer="1230" to-port="1"/>
		<edge from-layer="1230" from-port="2" to-layer="1232" to-port="0"/>
		<edge from-layer="1231" from-port="0" to-layer="1232" to-port="1"/>
		<edge from-layer="1232" from-port="2" to-layer="1239" to-port="0"/>
		<edge from-layer="1233" from-port="0" to-layer="1234" to-port="1"/>
		<edge from-layer="1234" from-port="2" to-layer="1236" to-port="0"/>
		<edge from-layer="1235" from-port="0" to-layer="1236" to-port="1"/>
		<edge from-layer="1236" from-port="2" to-layer="1238" to-port="0"/>
		<edge from-layer="1237" from-port="0" to-layer="1238" to-port="1"/>
		<edge from-layer="1238" from-port="2" to-layer="1239" to-port="1"/>
		<edge from-layer="1239" from-port="2" to-layer="1241" to-port="0"/>
		<edge from-layer="1240" from-port="0" to-layer="1241" to-port="1"/>
		<edge from-layer="1241" from-port="2" to-layer="1243" to-port="0"/>
		<edge from-layer="1242" from-port="0" to-layer="1243" to-port="1"/>
		<edge from-layer="1243" from-port="2" to-layer="1245" to-port="0"/>
		<edge from-layer="1244" from-port="0" to-layer="1245" to-port="1"/>
		<edge from-layer="1245" from-port="2" to-layer="1247" to-port="0"/>
		<edge from-layer="1246" from-port="0" to-layer="1247" to-port="1"/>
		<edge from-layer="1247" from-port="2" to-layer="1248" to-port="1"/>
		<edge from-layer="1248" from-port="2" to-layer="1250" to-port="0"/>
		<edge from-layer="1249" from-port="0" to-layer="1250" to-port="1"/>
		<edge from-layer="1250" from-port="2" to-layer="1252" to-port="0"/>
		<edge from-layer="1251" from-port="0" to-layer="1252" to-port="1"/>
		<edge from-layer="1252" from-port="2" to-layer="1253" to-port="0"/>
		<edge from-layer="1253" from-port="1" to-layer="1255" to-port="0"/>
		<edge from-layer="1254" from-port="0" to-layer="1255" to-port="1"/>
		<edge from-layer="1255" from-port="2" to-layer="1257" to-port="0"/>
		<edge from-layer="1256" from-port="0" to-layer="1257" to-port="1"/>
		<edge from-layer="1257" from-port="2" to-layer="1259" to-port="0"/>
		<edge from-layer="1258" from-port="0" to-layer="1259" to-port="1"/>
		<edge from-layer="1259" from-port="2" to-layer="1295" to-port="0"/>
		<edge from-layer="1259" from-port="2" to-layer="1493" to-port="0"/>
		<edge from-layer="1259" from-port="2" to-layer="1261" to-port="0"/>
		<edge from-layer="1260" from-port="0" to-layer="1261" to-port="1"/>
		<edge from-layer="1261" from-port="2" to-layer="1263" to-port="0"/>
		<edge from-layer="1262" from-port="0" to-layer="1263" to-port="1"/>
		<edge from-layer="1263" from-port="2" to-layer="1265" to-port="0"/>
		<edge from-layer="1264" from-port="0" to-layer="1265" to-port="1"/>
		<edge from-layer="1265" from-port="2" to-layer="1266" to-port="0"/>
		<edge from-layer="1266" from-port="1" to-layer="1268" to-port="0"/>
		<edge from-layer="1267" from-port="0" to-layer="1268" to-port="1"/>
		<edge from-layer="1268" from-port="2" to-layer="1270" to-port="0"/>
		<edge from-layer="1269" from-port="0" to-layer="1270" to-port="1"/>
		<edge from-layer="1270" from-port="2" to-layer="1272" to-port="0"/>
		<edge from-layer="1271" from-port="0" to-layer="1272" to-port="1"/>
		<edge from-layer="1272" from-port="2" to-layer="1273" to-port="0"/>
		<edge from-layer="1273" from-port="1" to-layer="1275" to-port="0"/>
		<edge from-layer="1274" from-port="0" to-layer="1275" to-port="1"/>
		<edge from-layer="1275" from-port="2" to-layer="1277" to-port="0"/>
		<edge from-layer="1276" from-port="0" to-layer="1277" to-port="1"/>
		<edge from-layer="1277" from-port="2" to-layer="1279" to-port="0"/>
		<edge from-layer="1278" from-port="0" to-layer="1279" to-port="1"/>
		<edge from-layer="1279" from-port="2" to-layer="1280" to-port="0"/>
		<edge from-layer="1280" from-port="1" to-layer="1282" to-port="0"/>
		<edge from-layer="1281" from-port="0" to-layer="1282" to-port="1"/>
		<edge from-layer="1282" from-port="2" to-layer="1284" to-port="0"/>
		<edge from-layer="1283" from-port="0" to-layer="1284" to-port="1"/>
		<edge from-layer="1284" from-port="2" to-layer="1286" to-port="0"/>
		<edge from-layer="1285" from-port="0" to-layer="1286" to-port="1"/>
		<edge from-layer="1286" from-port="2" to-layer="1288" to-port="0"/>
		<edge from-layer="1287" from-port="0" to-layer="1288" to-port="1"/>
		<edge from-layer="1288" from-port="2" to-layer="1290" to-port="0"/>
		<edge from-layer="1289" from-port="0" to-layer="1290" to-port="1"/>
		<edge from-layer="1290" from-port="2" to-layer="1489" to-port="0"/>
		<edge from-layer="1291" from-port="0" to-layer="1292" to-port="1"/>
		<edge from-layer="1292" from-port="2" to-layer="1298" to-port="0"/>
		<edge from-layer="1293" from-port="0" to-layer="1294" to-port="1"/>
		<edge from-layer="1294" from-port="2" to-layer="1298" to-port="1"/>
		<edge from-layer="1295" from-port="1" to-layer="1297" to-port="0"/>
		<edge from-layer="1296" from-port="0" to-layer="1297" to-port="1"/>
		<edge from-layer="1297" from-port="2" to-layer="1298" to-port="2"/>
		<edge from-layer="1298" from-port="3" to-layer="1300" to-port="0"/>
		<edge from-layer="1299" from-port="0" to-layer="1300" to-port="1"/>
		<edge from-layer="1300" from-port="2" to-layer="1302" to-port="0"/>
		<edge from-layer="1301" from-port="0" to-layer="1302" to-port="1"/>
		<edge from-layer="1302" from-port="2" to-layer="1303" to-port="0"/>
		<edge from-layer="1303" from-port="1" to-layer="1305" to-port="0"/>
		<edge from-layer="1304" from-port="0" to-layer="1305" to-port="1"/>
		<edge from-layer="1305" from-port="2" to-layer="1307" to-port="0"/>
		<edge from-layer="1306" from-port="0" to-layer="1307" to-port="1"/>
		<edge from-layer="1307" from-port="2" to-layer="1309" to-port="0"/>
		<edge from-layer="1308" from-port="0" to-layer="1309" to-port="1"/>
		<edge from-layer="1309" from-port="2" to-layer="1345" to-port="0"/>
		<edge from-layer="1309" from-port="2" to-layer="1524" to-port="0"/>
		<edge from-layer="1309" from-port="2" to-layer="1311" to-port="0"/>
		<edge from-layer="1310" from-port="0" to-layer="1311" to-port="1"/>
		<edge from-layer="1311" from-port="2" to-layer="1313" to-port="0"/>
		<edge from-layer="1312" from-port="0" to-layer="1313" to-port="1"/>
		<edge from-layer="1313" from-port="2" to-layer="1315" to-port="0"/>
		<edge from-layer="1314" from-port="0" to-layer="1315" to-port="1"/>
		<edge from-layer="1315" from-port="2" to-layer="1316" to-port="0"/>
		<edge from-layer="1316" from-port="1" to-layer="1318" to-port="0"/>
		<edge from-layer="1317" from-port="0" to-layer="1318" to-port="1"/>
		<edge from-layer="1318" from-port="2" to-layer="1320" to-port="0"/>
		<edge from-layer="1319" from-port="0" to-layer="1320" to-port="1"/>
		<edge from-layer="1320" from-port="2" to-layer="1322" to-port="0"/>
		<edge from-layer="1321" from-port="0" to-layer="1322" to-port="1"/>
		<edge from-layer="1322" from-port="2" to-layer="1323" to-port="0"/>
		<edge from-layer="1323" from-port="1" to-layer="1325" to-port="0"/>
		<edge from-layer="1324" from-port="0" to-layer="1325" to-port="1"/>
		<edge from-layer="1325" from-port="2" to-layer="1327" to-port="0"/>
		<edge from-layer="1326" from-port="0" to-layer="1327" to-port="1"/>
		<edge from-layer="1327" from-port="2" to-layer="1329" to-port="0"/>
		<edge from-layer="1328" from-port="0" to-layer="1329" to-port="1"/>
		<edge from-layer="1329" from-port="2" to-layer="1330" to-port="0"/>
		<edge from-layer="1330" from-port="1" to-layer="1332" to-port="0"/>
		<edge from-layer="1331" from-port="0" to-layer="1332" to-port="1"/>
		<edge from-layer="1332" from-port="2" to-layer="1334" to-port="0"/>
		<edge from-layer="1333" from-port="0" to-layer="1334" to-port="1"/>
		<edge from-layer="1334" from-port="2" to-layer="1336" to-port="0"/>
		<edge from-layer="1335" from-port="0" to-layer="1336" to-port="1"/>
		<edge from-layer="1336" from-port="2" to-layer="1338" to-port="0"/>
		<edge from-layer="1337" from-port="0" to-layer="1338" to-port="1"/>
		<edge from-layer="1338" from-port="2" to-layer="1340" to-port="0"/>
		<edge from-layer="1339" from-port="0" to-layer="1340" to-port="1"/>
		<edge from-layer="1340" from-port="2" to-layer="1489" to-port="1"/>
		<edge from-layer="1341" from-port="0" to-layer="1342" to-port="1"/>
		<edge from-layer="1342" from-port="2" to-layer="1348" to-port="0"/>
		<edge from-layer="1343" from-port="0" to-layer="1344" to-port="1"/>
		<edge from-layer="1344" from-port="2" to-layer="1348" to-port="1"/>
		<edge from-layer="1345" from-port="1" to-layer="1347" to-port="0"/>
		<edge from-layer="1346" from-port="0" to-layer="1347" to-port="1"/>
		<edge from-layer="1347" from-port="2" to-layer="1348" to-port="2"/>
		<edge from-layer="1348" from-port="3" to-layer="1350" to-port="0"/>
		<edge from-layer="1349" from-port="0" to-layer="1350" to-port="1"/>
		<edge from-layer="1350" from-port="2" to-layer="1352" to-port="0"/>
		<edge from-layer="1351" from-port="0" to-layer="1352" to-port="1"/>
		<edge from-layer="1352" from-port="2" to-layer="1353" to-port="0"/>
		<edge from-layer="1353" from-port="1" to-layer="1355" to-port="0"/>
		<edge from-layer="1354" from-port="0" to-layer="1355" to-port="1"/>
		<edge from-layer="1355" from-port="2" to-layer="1357" to-port="0"/>
		<edge from-layer="1356" from-port="0" to-layer="1357" to-port="1"/>
		<edge from-layer="1357" from-port="2" to-layer="1359" to-port="0"/>
		<edge from-layer="1358" from-port="0" to-layer="1359" to-port="1"/>
		<edge from-layer="1359" from-port="2" to-layer="1555" to-port="0"/>
		<edge from-layer="1359" from-port="2" to-layer="1395" to-port="0"/>
		<edge from-layer="1359" from-port="2" to-layer="1361" to-port="0"/>
		<edge from-layer="1360" from-port="0" to-layer="1361" to-port="1"/>
		<edge from-layer="1361" from-port="2" to-layer="1363" to-port="0"/>
		<edge from-layer="1362" from-port="0" to-layer="1363" to-port="1"/>
		<edge from-layer="1363" from-port="2" to-layer="1365" to-port="0"/>
		<edge from-layer="1364" from-port="0" to-layer="1365" to-port="1"/>
		<edge from-layer="1365" from-port="2" to-layer="1366" to-port="0"/>
		<edge from-layer="1366" from-port="1" to-layer="1368" to-port="0"/>
		<edge from-layer="1367" from-port="0" to-layer="1368" to-port="1"/>
		<edge from-layer="1368" from-port="2" to-layer="1370" to-port="0"/>
		<edge from-layer="1369" from-port="0" to-layer="1370" to-port="1"/>
		<edge from-layer="1370" from-port="2" to-layer="1372" to-port="0"/>
		<edge from-layer="1371" from-port="0" to-layer="1372" to-port="1"/>
		<edge from-layer="1372" from-port="2" to-layer="1373" to-port="0"/>
		<edge from-layer="1373" from-port="1" to-layer="1375" to-port="0"/>
		<edge from-layer="1374" from-port="0" to-layer="1375" to-port="1"/>
		<edge from-layer="1375" from-port="2" to-layer="1377" to-port="0"/>
		<edge from-layer="1376" from-port="0" to-layer="1377" to-port="1"/>
		<edge from-layer="1377" from-port="2" to-layer="1379" to-port="0"/>
		<edge from-layer="1378" from-port="0" to-layer="1379" to-port="1"/>
		<edge from-layer="1379" from-port="2" to-layer="1380" to-port="0"/>
		<edge from-layer="1380" from-port="1" to-layer="1382" to-port="0"/>
		<edge from-layer="1381" from-port="0" to-layer="1382" to-port="1"/>
		<edge from-layer="1382" from-port="2" to-layer="1384" to-port="0"/>
		<edge from-layer="1383" from-port="0" to-layer="1384" to-port="1"/>
		<edge from-layer="1384" from-port="2" to-layer="1386" to-port="0"/>
		<edge from-layer="1385" from-port="0" to-layer="1386" to-port="1"/>
		<edge from-layer="1386" from-port="2" to-layer="1388" to-port="0"/>
		<edge from-layer="1387" from-port="0" to-layer="1388" to-port="1"/>
		<edge from-layer="1388" from-port="2" to-layer="1390" to-port="0"/>
		<edge from-layer="1389" from-port="0" to-layer="1390" to-port="1"/>
		<edge from-layer="1390" from-port="2" to-layer="1489" to-port="2"/>
		<edge from-layer="1391" from-port="0" to-layer="1392" to-port="1"/>
		<edge from-layer="1392" from-port="2" to-layer="1398" to-port="0"/>
		<edge from-layer="1393" from-port="0" to-layer="1394" to-port="1"/>
		<edge from-layer="1394" from-port="2" to-layer="1398" to-port="1"/>
		<edge from-layer="1395" from-port="1" to-layer="1397" to-port="0"/>
		<edge from-layer="1396" from-port="0" to-layer="1397" to-port="1"/>
		<edge from-layer="1397" from-port="2" to-layer="1398" to-port="2"/>
		<edge from-layer="1398" from-port="3" to-layer="1400" to-port="0"/>
		<edge from-layer="1399" from-port="0" to-layer="1400" to-port="1"/>
		<edge from-layer="1400" from-port="2" to-layer="1402" to-port="0"/>
		<edge from-layer="1401" from-port="0" to-layer="1402" to-port="1"/>
		<edge from-layer="1402" from-port="2" to-layer="1403" to-port="0"/>
		<edge from-layer="1403" from-port="1" to-layer="1405" to-port="0"/>
		<edge from-layer="1404" from-port="0" to-layer="1405" to-port="1"/>
		<edge from-layer="1405" from-port="2" to-layer="1407" to-port="0"/>
		<edge from-layer="1406" from-port="0" to-layer="1407" to-port="1"/>
		<edge from-layer="1407" from-port="2" to-layer="1409" to-port="0"/>
		<edge from-layer="1408" from-port="0" to-layer="1409" to-port="1"/>
		<edge from-layer="1409" from-port="2" to-layer="1443" to-port="0"/>
		<edge from-layer="1409" from-port="2" to-layer="1586" to-port="0"/>
		<edge from-layer="1409" from-port="2" to-layer="1411" to-port="0"/>
		<edge from-layer="1410" from-port="0" to-layer="1411" to-port="1"/>
		<edge from-layer="1411" from-port="2" to-layer="1413" to-port="0"/>
		<edge from-layer="1412" from-port="0" to-layer="1413" to-port="1"/>
		<edge from-layer="1413" from-port="2" to-layer="1415" to-port="0"/>
		<edge from-layer="1414" from-port="0" to-layer="1415" to-port="1"/>
		<edge from-layer="1415" from-port="2" to-layer="1416" to-port="0"/>
		<edge from-layer="1416" from-port="1" to-layer="1418" to-port="0"/>
		<edge from-layer="1417" from-port="0" to-layer="1418" to-port="1"/>
		<edge from-layer="1418" from-port="2" to-layer="1420" to-port="0"/>
		<edge from-layer="1419" from-port="0" to-layer="1420" to-port="1"/>
		<edge from-layer="1420" from-port="2" to-layer="1422" to-port="0"/>
		<edge from-layer="1421" from-port="0" to-layer="1422" to-port="1"/>
		<edge from-layer="1422" from-port="2" to-layer="1423" to-port="0"/>
		<edge from-layer="1423" from-port="1" to-layer="1425" to-port="0"/>
		<edge from-layer="1424" from-port="0" to-layer="1425" to-port="1"/>
		<edge from-layer="1425" from-port="2" to-layer="1427" to-port="0"/>
		<edge from-layer="1426" from-port="0" to-layer="1427" to-port="1"/>
		<edge from-layer="1427" from-port="2" to-layer="1429" to-port="0"/>
		<edge from-layer="1428" from-port="0" to-layer="1429" to-port="1"/>
		<edge from-layer="1429" from-port="2" to-layer="1430" to-port="0"/>
		<edge from-layer="1430" from-port="1" to-layer="1432" to-port="0"/>
		<edge from-layer="1431" from-port="0" to-layer="1432" to-port="1"/>
		<edge from-layer="1432" from-port="2" to-layer="1434" to-port="0"/>
		<edge from-layer="1433" from-port="0" to-layer="1434" to-port="1"/>
		<edge from-layer="1434" from-port="2" to-layer="1436" to-port="0"/>
		<edge from-layer="1435" from-port="0" to-layer="1436" to-port="1"/>
		<edge from-layer="1436" from-port="2" to-layer="1438" to-port="0"/>
		<edge from-layer="1437" from-port="0" to-layer="1438" to-port="1"/>
		<edge from-layer="1438" from-port="2" to-layer="1440" to-port="0"/>
		<edge from-layer="1439" from-port="0" to-layer="1440" to-port="1"/>
		<edge from-layer="1440" from-port="2" to-layer="1489" to-port="3"/>
		<edge from-layer="1441" from-port="0" to-layer="1442" to-port="1"/>
		<edge from-layer="1442" from-port="2" to-layer="1446" to-port="0"/>
		<edge from-layer="1443" from-port="1" to-layer="1445" to-port="0"/>
		<edge from-layer="1444" from-port="0" to-layer="1445" to-port="1"/>
		<edge from-layer="1445" from-port="2" to-layer="1446" to-port="1"/>
		<edge from-layer="1446" from-port="2" to-layer="1448" to-port="0"/>
		<edge from-layer="1447" from-port="0" to-layer="1448" to-port="1"/>
		<edge from-layer="1448" from-port="2" to-layer="1450" to-port="0"/>
		<edge from-layer="1449" from-port="0" to-layer="1450" to-port="1"/>
		<edge from-layer="1450" from-port="2" to-layer="1451" to-port="0"/>
		<edge from-layer="1451" from-port="1" to-layer="1453" to-port="0"/>
		<edge from-layer="1452" from-port="0" to-layer="1453" to-port="1"/>
		<edge from-layer="1453" from-port="2" to-layer="1455" to-port="0"/>
		<edge from-layer="1454" from-port="0" to-layer="1455" to-port="1"/>
		<edge from-layer="1455" from-port="2" to-layer="1457" to-port="0"/>
		<edge from-layer="1456" from-port="0" to-layer="1457" to-port="1"/>
		<edge from-layer="1457" from-port="2" to-layer="1617" to-port="0"/>
		<edge from-layer="1457" from-port="2" to-layer="1459" to-port="0"/>
		<edge from-layer="1458" from-port="0" to-layer="1459" to-port="1"/>
		<edge from-layer="1459" from-port="2" to-layer="1461" to-port="0"/>
		<edge from-layer="1460" from-port="0" to-layer="1461" to-port="1"/>
		<edge from-layer="1461" from-port="2" to-layer="1463" to-port="0"/>
		<edge from-layer="1462" from-port="0" to-layer="1463" to-port="1"/>
		<edge from-layer="1463" from-port="2" to-layer="1464" to-port="0"/>
		<edge from-layer="1464" from-port="1" to-layer="1466" to-port="0"/>
		<edge from-layer="1465" from-port="0" to-layer="1466" to-port="1"/>
		<edge from-layer="1466" from-port="2" to-layer="1468" to-port="0"/>
		<edge from-layer="1467" from-port="0" to-layer="1468" to-port="1"/>
		<edge from-layer="1468" from-port="2" to-layer="1470" to-port="0"/>
		<edge from-layer="1469" from-port="0" to-layer="1470" to-port="1"/>
		<edge from-layer="1470" from-port="2" to-layer="1471" to-port="0"/>
		<edge from-layer="1471" from-port="1" to-layer="1473" to-port="0"/>
		<edge from-layer="1472" from-port="0" to-layer="1473" to-port="1"/>
		<edge from-layer="1473" from-port="2" to-layer="1475" to-port="0"/>
		<edge from-layer="1474" from-port="0" to-layer="1475" to-port="1"/>
		<edge from-layer="1475" from-port="2" to-layer="1477" to-port="0"/>
		<edge from-layer="1476" from-port="0" to-layer="1477" to-port="1"/>
		<edge from-layer="1477" from-port="2" to-layer="1478" to-port="0"/>
		<edge from-layer="1478" from-port="1" to-layer="1480" to-port="0"/>
		<edge from-layer="1479" from-port="0" to-layer="1480" to-port="1"/>
		<edge from-layer="1480" from-port="2" to-layer="1482" to-port="0"/>
		<edge from-layer="1481" from-port="0" to-layer="1482" to-port="1"/>
		<edge from-layer="1482" from-port="2" to-layer="1484" to-port="0"/>
		<edge from-layer="1483" from-port="0" to-layer="1484" to-port="1"/>
		<edge from-layer="1484" from-port="2" to-layer="1486" to-port="0"/>
		<edge from-layer="1485" from-port="0" to-layer="1486" to-port="1"/>
		<edge from-layer="1486" from-port="2" to-layer="1488" to-port="0"/>
		<edge from-layer="1487" from-port="0" to-layer="1488" to-port="1"/>
		<edge from-layer="1488" from-port="2" to-layer="1489" to-port="4"/>
		<edge from-layer="1489" from-port="5" to-layer="1491" to-port="0"/>
		<edge from-layer="1490" from-port="0" to-layer="1491" to-port="1"/>
		<edge from-layer="1491" from-port="2" to-layer="1654" to-port="0"/>
		<edge from-layer="1492" from-port="0" to-layer="1493" to-port="1"/>
		<edge from-layer="1493" from-port="2" to-layer="1495" to-port="0"/>
		<edge from-layer="1494" from-port="0" to-layer="1495" to-port="1"/>
		<edge from-layer="1495" from-port="2" to-layer="1497" to-port="0"/>
		<edge from-layer="1496" from-port="0" to-layer="1497" to-port="1"/>
		<edge from-layer="1497" from-port="2" to-layer="1498" to-port="0"/>
		<edge from-layer="1498" from-port="1" to-layer="1500" to-port="0"/>
		<edge from-layer="1499" from-port="0" to-layer="1500" to-port="1"/>
		<edge from-layer="1500" from-port="2" to-layer="1502" to-port="0"/>
		<edge from-layer="1501" from-port="0" to-layer="1502" to-port="1"/>
		<edge from-layer="1502" from-port="2" to-layer="1504" to-port="0"/>
		<edge from-layer="1503" from-port="0" to-layer="1504" to-port="1"/>
		<edge from-layer="1504" from-port="2" to-layer="1505" to-port="0"/>
		<edge from-layer="1505" from-port="1" to-layer="1507" to-port="0"/>
		<edge from-layer="1506" from-port="0" to-layer="1507" to-port="1"/>
		<edge from-layer="1507" from-port="2" to-layer="1509" to-port="0"/>
		<edge from-layer="1508" from-port="0" to-layer="1509" to-port="1"/>
		<edge from-layer="1509" from-port="2" to-layer="1511" to-port="0"/>
		<edge from-layer="1510" from-port="0" to-layer="1511" to-port="1"/>
		<edge from-layer="1511" from-port="2" to-layer="1512" to-port="0"/>
		<edge from-layer="1512" from-port="1" to-layer="1514" to-port="0"/>
		<edge from-layer="1513" from-port="0" to-layer="1514" to-port="1"/>
		<edge from-layer="1514" from-port="2" to-layer="1516" to-port="0"/>
		<edge from-layer="1515" from-port="0" to-layer="1516" to-port="1"/>
		<edge from-layer="1516" from-port="2" to-layer="1518" to-port="0"/>
		<edge from-layer="1517" from-port="0" to-layer="1518" to-port="1"/>
		<edge from-layer="1518" from-port="2" to-layer="1520" to-port="0"/>
		<edge from-layer="1519" from-port="0" to-layer="1520" to-port="1"/>
		<edge from-layer="1520" from-port="2" to-layer="1522" to-port="0"/>
		<edge from-layer="1521" from-port="0" to-layer="1522" to-port="1"/>
		<edge from-layer="1522" from-port="2" to-layer="1647" to-port="0"/>
		<edge from-layer="1523" from-port="0" to-layer="1524" to-port="1"/>
		<edge from-layer="1524" from-port="2" to-layer="1526" to-port="0"/>
		<edge from-layer="1525" from-port="0" to-layer="1526" to-port="1"/>
		<edge from-layer="1526" from-port="2" to-layer="1528" to-port="0"/>
		<edge from-layer="1527" from-port="0" to-layer="1528" to-port="1"/>
		<edge from-layer="1528" from-port="2" to-layer="1529" to-port="0"/>
		<edge from-layer="1529" from-port="1" to-layer="1531" to-port="0"/>
		<edge from-layer="1530" from-port="0" to-layer="1531" to-port="1"/>
		<edge from-layer="1531" from-port="2" to-layer="1533" to-port="0"/>
		<edge from-layer="1532" from-port="0" to-layer="1533" to-port="1"/>
		<edge from-layer="1533" from-port="2" to-layer="1535" to-port="0"/>
		<edge from-layer="1534" from-port="0" to-layer="1535" to-port="1"/>
		<edge from-layer="1535" from-port="2" to-layer="1536" to-port="0"/>
		<edge from-layer="1536" from-port="1" to-layer="1538" to-port="0"/>
		<edge from-layer="1537" from-port="0" to-layer="1538" to-port="1"/>
		<edge from-layer="1538" from-port="2" to-layer="1540" to-port="0"/>
		<edge from-layer="1539" from-port="0" to-layer="1540" to-port="1"/>
		<edge from-layer="1540" from-port="2" to-layer="1542" to-port="0"/>
		<edge from-layer="1541" from-port="0" to-layer="1542" to-port="1"/>
		<edge from-layer="1542" from-port="2" to-layer="1543" to-port="0"/>
		<edge from-layer="1543" from-port="1" to-layer="1545" to-port="0"/>
		<edge from-layer="1544" from-port="0" to-layer="1545" to-port="1"/>
		<edge from-layer="1545" from-port="2" to-layer="1547" to-port="0"/>
		<edge from-layer="1546" from-port="0" to-layer="1547" to-port="1"/>
		<edge from-layer="1547" from-port="2" to-layer="1549" to-port="0"/>
		<edge from-layer="1548" from-port="0" to-layer="1549" to-port="1"/>
		<edge from-layer="1549" from-port="2" to-layer="1551" to-port="0"/>
		<edge from-layer="1550" from-port="0" to-layer="1551" to-port="1"/>
		<edge from-layer="1551" from-port="2" to-layer="1553" to-port="0"/>
		<edge from-layer="1552" from-port="0" to-layer="1553" to-port="1"/>
		<edge from-layer="1553" from-port="2" to-layer="1647" to-port="1"/>
		<edge from-layer="1554" from-port="0" to-layer="1555" to-port="1"/>
		<edge from-layer="1555" from-port="2" to-layer="1557" to-port="0"/>
		<edge from-layer="1556" from-port="0" to-layer="1557" to-port="1"/>
		<edge from-layer="1557" from-port="2" to-layer="1559" to-port="0"/>
		<edge from-layer="1558" from-port="0" to-layer="1559" to-port="1"/>
		<edge from-layer="1559" from-port="2" to-layer="1560" to-port="0"/>
		<edge from-layer="1560" from-port="1" to-layer="1562" to-port="0"/>
		<edge from-layer="1561" from-port="0" to-layer="1562" to-port="1"/>
		<edge from-layer="1562" from-port="2" to-layer="1564" to-port="0"/>
		<edge from-layer="1563" from-port="0" to-layer="1564" to-port="1"/>
		<edge from-layer="1564" from-port="2" to-layer="1566" to-port="0"/>
		<edge from-layer="1565" from-port="0" to-layer="1566" to-port="1"/>
		<edge from-layer="1566" from-port="2" to-layer="1567" to-port="0"/>
		<edge from-layer="1567" from-port="1" to-layer="1569" to-port="0"/>
		<edge from-layer="1568" from-port="0" to-layer="1569" to-port="1"/>
		<edge from-layer="1569" from-port="2" to-layer="1571" to-port="0"/>
		<edge from-layer="1570" from-port="0" to-layer="1571" to-port="1"/>
		<edge from-layer="1571" from-port="2" to-layer="1573" to-port="0"/>
		<edge from-layer="1572" from-port="0" to-layer="1573" to-port="1"/>
		<edge from-layer="1573" from-port="2" to-layer="1574" to-port="0"/>
		<edge from-layer="1574" from-port="1" to-layer="1576" to-port="0"/>
		<edge from-layer="1575" from-port="0" to-layer="1576" to-port="1"/>
		<edge from-layer="1576" from-port="2" to-layer="1578" to-port="0"/>
		<edge from-layer="1577" from-port="0" to-layer="1578" to-port="1"/>
		<edge from-layer="1578" from-port="2" to-layer="1580" to-port="0"/>
		<edge from-layer="1579" from-port="0" to-layer="1580" to-port="1"/>
		<edge from-layer="1580" from-port="2" to-layer="1582" to-port="0"/>
		<edge from-layer="1581" from-port="0" to-layer="1582" to-port="1"/>
		<edge from-layer="1582" from-port="2" to-layer="1584" to-port="0"/>
		<edge from-layer="1583" from-port="0" to-layer="1584" to-port="1"/>
		<edge from-layer="1584" from-port="2" to-layer="1647" to-port="2"/>
		<edge from-layer="1585" from-port="0" to-layer="1586" to-port="1"/>
		<edge from-layer="1586" from-port="2" to-layer="1588" to-port="0"/>
		<edge from-layer="1587" from-port="0" to-layer="1588" to-port="1"/>
		<edge from-layer="1588" from-port="2" to-layer="1590" to-port="0"/>
		<edge from-layer="1589" from-port="0" to-layer="1590" to-port="1"/>
		<edge from-layer="1590" from-port="2" to-layer="1591" to-port="0"/>
		<edge from-layer="1591" from-port="1" to-layer="1593" to-port="0"/>
		<edge from-layer="1592" from-port="0" to-layer="1593" to-port="1"/>
		<edge from-layer="1593" from-port="2" to-layer="1595" to-port="0"/>
		<edge from-layer="1594" from-port="0" to-layer="1595" to-port="1"/>
		<edge from-layer="1595" from-port="2" to-layer="1597" to-port="0"/>
		<edge from-layer="1596" from-port="0" to-layer="1597" to-port="1"/>
		<edge from-layer="1597" from-port="2" to-layer="1598" to-port="0"/>
		<edge from-layer="1598" from-port="1" to-layer="1600" to-port="0"/>
		<edge from-layer="1599" from-port="0" to-layer="1600" to-port="1"/>
		<edge from-layer="1600" from-port="2" to-layer="1602" to-port="0"/>
		<edge from-layer="1601" from-port="0" to-layer="1602" to-port="1"/>
		<edge from-layer="1602" from-port="2" to-layer="1604" to-port="0"/>
		<edge from-layer="1603" from-port="0" to-layer="1604" to-port="1"/>
		<edge from-layer="1604" from-port="2" to-layer="1605" to-port="0"/>
		<edge from-layer="1605" from-port="1" to-layer="1607" to-port="0"/>
		<edge from-layer="1606" from-port="0" to-layer="1607" to-port="1"/>
		<edge from-layer="1607" from-port="2" to-layer="1609" to-port="0"/>
		<edge from-layer="1608" from-port="0" to-layer="1609" to-port="1"/>
		<edge from-layer="1609" from-port="2" to-layer="1611" to-port="0"/>
		<edge from-layer="1610" from-port="0" to-layer="1611" to-port="1"/>
		<edge from-layer="1611" from-port="2" to-layer="1613" to-port="0"/>
		<edge from-layer="1612" from-port="0" to-layer="1613" to-port="1"/>
		<edge from-layer="1613" from-port="2" to-layer="1615" to-port="0"/>
		<edge from-layer="1614" from-port="0" to-layer="1615" to-port="1"/>
		<edge from-layer="1615" from-port="2" to-layer="1647" to-port="3"/>
		<edge from-layer="1616" from-port="0" to-layer="1617" to-port="1"/>
		<edge from-layer="1617" from-port="2" to-layer="1619" to-port="0"/>
		<edge from-layer="1618" from-port="0" to-layer="1619" to-port="1"/>
		<edge from-layer="1619" from-port="2" to-layer="1621" to-port="0"/>
		<edge from-layer="1620" from-port="0" to-layer="1621" to-port="1"/>
		<edge from-layer="1621" from-port="2" to-layer="1622" to-port="0"/>
		<edge from-layer="1622" from-port="1" to-layer="1624" to-port="0"/>
		<edge from-layer="1623" from-port="0" to-layer="1624" to-port="1"/>
		<edge from-layer="1624" from-port="2" to-layer="1626" to-port="0"/>
		<edge from-layer="1625" from-port="0" to-layer="1626" to-port="1"/>
		<edge from-layer="1626" from-port="2" to-layer="1628" to-port="0"/>
		<edge from-layer="1627" from-port="0" to-layer="1628" to-port="1"/>
		<edge from-layer="1628" from-port="2" to-layer="1629" to-port="0"/>
		<edge from-layer="1629" from-port="1" to-layer="1631" to-port="0"/>
		<edge from-layer="1630" from-port="0" to-layer="1631" to-port="1"/>
		<edge from-layer="1631" from-port="2" to-layer="1633" to-port="0"/>
		<edge from-layer="1632" from-port="0" to-layer="1633" to-port="1"/>
		<edge from-layer="1633" from-port="2" to-layer="1635" to-port="0"/>
		<edge from-layer="1634" from-port="0" to-layer="1635" to-port="1"/>
		<edge from-layer="1635" from-port="2" to-layer="1636" to-port="0"/>
		<edge from-layer="1636" from-port="1" to-layer="1638" to-port="0"/>
		<edge from-layer="1637" from-port="0" to-layer="1638" to-port="1"/>
		<edge from-layer="1638" from-port="2" to-layer="1640" to-port="0"/>
		<edge from-layer="1639" from-port="0" to-layer="1640" to-port="1"/>
		<edge from-layer="1640" from-port="2" to-layer="1642" to-port="0"/>
		<edge from-layer="1641" from-port="0" to-layer="1642" to-port="1"/>
		<edge from-layer="1642" from-port="2" to-layer="1644" to-port="0"/>
		<edge from-layer="1643" from-port="0" to-layer="1644" to-port="1"/>
		<edge from-layer="1644" from-port="2" to-layer="1646" to-port="0"/>
		<edge from-layer="1645" from-port="0" to-layer="1646" to-port="1"/>
		<edge from-layer="1646" from-port="2" to-layer="1647" to-port="4"/>
		<edge from-layer="1647" from-port="5" to-layer="1649" to-port="0"/>
		<edge from-layer="1648" from-port="0" to-layer="1649" to-port="1"/>
		<edge from-layer="1649" from-port="2" to-layer="1650" to-port="0"/>
		<edge from-layer="1650" from-port="1" to-layer="1652" to-port="0"/>
		<edge from-layer="1651" from-port="0" to-layer="1652" to-port="1"/>
		<edge from-layer="1652" from-port="2" to-layer="1654" to-port="1"/>
		<edge from-layer="1653" from-port="0" to-layer="1654" to-port="2"/>
		<edge from-layer="1654" from-port="3" to-layer="1655" to-port="0"/>
	</edges>
	<meta_data>
		<MO_version value="2021.4.1-3926-14e67d86634-releases/2021/4"/>
		<cli_parameters>
			<data_type value="float"/>
			<disable_nhwc_to_nchw value="False"/>
			<disable_resnet_optimization value="False"/>
			<disable_weights_compression value="False"/>
			<enable_concat_optimization value="False"/>
			<extensions value="DIR"/>
			<framework value="tf"/>
			<freeze_placeholder_with_value value="{}"/>
			<generate_deprecated_IR_V7 value="False"/>
			<input_model_is_text value="False"/>
			<input_shape value="[1,300,300,3]"/>
			<keep_shape_ops value="True"/>
			<legacy_ir_generation value="False"/>
			<log_level value="ERROR"/>
			<mean_scale_values value="{}"/>
			<mean_values value="()"/>
			<model_name value="saved_model"/>
			<output_dir value="DIR"/>
			<placeholder_data_types value="{}"/>
			<placeholder_shapes value="[  1 512 512   3]"/>
			<progress value="False"/>
			<reverse_input_channels value="True"/>
			<saved_model_dir value="DIR"/>
			<scale_values value="()"/>
			<silent value="False"/>
			<static_shape value="False"/>
			<stream_output value="False"/>
			<tensorflow_object_detection_api_pipeline_config value="DIR/pipeline.config"/>
			<transform value=""/>
			<transformations_config value="DIR/efficient_det_support_api_v2.0.json"/>
			<unset unset_cli_parameters="batch, disable_fusing, disable_gfusing, finegrain_fusing, input, input_checkpoint, input_meta_graph, input_model, move_to_preprocess, output, saved_model_tags, scale, tensorboard_logdir, tensorflow_custom_layer_libraries, tensorflow_custom_operations_config_update, tensorflow_use_custom_operations_config"/>
		</cli_parameters>
	</meta_data>
</net>
